model_deepsets.pth.tar (torch, 123781 bytes, 12 tensors)

embedding.weight f4 [11, 128]
00000000: c860 23c0 51b2 603e 29e2 75bf b35f 953f
00000010: 74d5 853f ce4d a53f 2c5f cfbe 5ec5 de3d
00000020: 4698 203f 73c6 e23d b028 77be d50b fe3f
00000030: 8c25 80be 96ea fdbe ce13 95be 5837 123f
00000040: 1aaa 923f ae1e cbbf 583b d83e 6612 aabf
00000050: 67d0 453f aedd d4bd 5515 273f c79c 5f3f
00000060: 9383 1340 6af3 cd3d b434 4940 59c4 b33d
00000070: a872 a13f 4253 a5be 8780 c8bf 370b 1d3f
00000080: 2b71 fcbf ba91 7c3e 8019 d8be 68ce b63e
00000090: 19a0 18c0 4cd5 9b3f 0d5b 1340 f740 89bf
000000a0: c61d a5bd 21cb 17bf ff98 e9bc 5ca1 f7be
000000b0: 38d6 253e 12dd 5abf 8610 5ebf d67a cfbf
000000c0: 0d0e 763f 7f5d 43bf d088 983f 86e0 4fbf
000000d0: 28b0 5f3e e68f a43f e7f1 5fbf 9790 a4bd
000000e0: 0aed eebe 46b5 923f 7053 32be 71a9 06c0
000000f0: e5e0 dabf f826 7fbd 925f d23f c13c 3bbf
00000100: 0005 65bf 6259 d93e f31b a23f 578d 70be
00000110: cf6d eb3f 9a56 413e 955a a13e e325 0e3d
00000120: 4c79 373e 0419 443f 10d2 9cbf ed24 b5bf
00000130: 1ab0 d73e 294d f7be 9688 ad3f a5e7 4ebd
00000140: 2d66 e4be d06f 92be d2a7 d3bc 6a4e 7040
00000150: 91e8 19bf 35f8 56bf 3b1d 36bf 7ee5 0840
00000160: 5ea4 f3bc 280d 343c 64ef 7140 500e 18bd
00000170: 8ab3 f83e 0806 5a3f 221f 0e3c cec4 113f
00000180: 1d66 223d cf45 3b40 4948 a13f 34fb edbf
00000190: 898a 8d3e f528 6f3f 2073 4e3e bcb8 1940
000001a0: 118c 64bf 12bf 00c0 3230 6fbd a986 0fbf
000001b0: ad3d 4e3f 8d74 f7be 442a 353f ff29 27bf
000001c0: 0c9c 7d3f 19dd 97bf 7093 903e 971e b4bf
000001d0: 57b9 91bf 23d1 7f3e 0992 86be 437e 1e40
000001e0: e2ff f03f e603 bd3f f645 5b3d 8825 9cbf
000001f0: 2536 d73f 4582 453e 93ed 1cbf 4a57 91bb
00000200: 5621 aa3f 4668 ffbf b80c 843e 1a00 a3bf
00000210: 17ba aebf 2ced eb3e 4c93 29bf 1029 833e
00000220: fab6 06bf 99e0 e43e 9f44 61bf 849f 5d3e
00000230: 5e72 adbf 5872 3fbe 3fd4 123f 347e cdbe
00000240: 2e9d ec3f a09a 36bf f049 61bf bb00 833f
00000250: a432 f23e 04a6 793f e07c 783f 5be6 b93f
00000260: 35ed 393e 970e b23f 31e5 c43f e863 053f
00000270: f4a5 e03f a831 e13e 6436 b5bf 9417 a4be
00000280: 3e58 81be ffc2 b9bf 26e1 9ebf f99e a23d
00000290: c48f 97bf d8fd fabd f65f ef3f ff0f 89bf
000002a0: f1cc 1ebf 8923 cf3e a28e cbbe 656a d73e
000002b0: 0b4a 653e fa8e 09bb 1668 8c3f 9aca 7cbf
000002c0: 6d61 b83f 3bfe a03f 06c4 53bf e00d 6fbf
000002d0: 1a79 70bf e7b0 60bf 33c3 6f3f cc70 af3f
000002e0: b698 a43f a54c a8bf 3edb ae3f 0a9d b13f
000002f0: d30c 4bbc 4d62 bcbe 98d1 443f ba05 e6be
00000300: 76d1 5a3f 1002 23c0 133f 8e3f 356d 14bf
00000310: f220 c0bf d532 32be b773 84bf 37f5 343d
00000320: ddad 203e 7f3e 04bf 18cc ca3e e762 a3be
00000330: 703a b23e 6ed7 a0be e073 dabe c043 6cbf
00000340: 9be6 d3be 7605 4c3f ba92 32bf 7a7e 8abf
00000350: 7774 b5bf 6ba4 693f 8978 053d af6f 8dbf
00000360: d767 073f c59d f0be 2f3e cfbd cbee 113f
00000370: e999 b93f d72b da3f cac3 953d 9be4 363f
00000380: bee6 70be 395e 8fbe 2345 bbbe 82c8 a1bf
00000390: 3a28 e33e ddf9 643f 3a75 81bf 4500 2ebf
000003a0: 7928 ccbf 18e5 8b3f 96fc a6bf b315 f7bf
000003b0: fd16 dd3d caad 0340 9e69 7cbf f766 c4bf
000003c0: 9837 973e 9070 2e3f 2009 6abd da3d 0d3f
000003d0: 7c96 00be 50f5 1dbe 3649 62be 14d6 71bf
000003e0: 6905 a4bf 670d df3e 1179 e43f 3f2a 48bf
000003f0: f628 94bf e4ba 323f d2f1 2ac0 747b 093f
-2.552782 0.21943022 -0.9604822 1.166983 1.0455766 1.2914369 -0.40502298 0.108774886
0.6273235 0.110730074 -0.24136615 1.9847361 -0.25028646 -0.49593037 -0.29116672 0.571157
1.1458161 -1.5868738 0.42232776 -1.3286865 0.7727112 -0.103938445 0.65266925 0.873486
2.3049057 0.10056193 3.1438417 0.08777685 1.2613115 -0.32290083 -1.5664223 0.6134524
-1.9722036 0.24664965 -0.42206955 0.3570435 -2.3847716 1.2174468 2.3024323 -1.0722951
-0.080623195 -0.59294325 -0.028515337 -0.48365295 0.16194999 -0.85493577 -0.8674396 -1.6209362
0.9611519 -0.7631454 1.1916752 -0.8120197 0.21844542 1.2856414 -0.8747849 -0.08035391
-0.4666522 1.146157 -0.17414641 -2.104092 -1.7099882 -0.062293023 1.6435416 -0.7313958
-0.89460754 0.42451006 1.266478 -0.23491417 1.8392886 0.18880692 0.3151442 0.0347041
0.17917365 0.7660067 -1.2251606 -1.4151894 0.42126542 -0.48301056 1.3557308 -0.050513882
-0.44609204 -0.2860093 -0.025836859 3.754786 -0.60120493 -0.83972484 -0.7113835 2.139007
-0.029741462 0.010989465 3.7802362 -0.037123024 0.48574477 0.8516545 0.008674415 0.56940925
0.039648164 2.9261358 1.2600185 -1.8592286 0.27644756 0.9342187 0.20161104 2.4019003
-0.89276224 -2.011662 -0.058395572 -0.5606485 0.8056286 -0.4833111 0.7076762 -0.65298456
0.99066234 -1.1864349 0.28237486 -1.4071835 -1.1384686 0.24982123 -0.2628329 2.4764564
1.8828089 1.4766815 0.053533517 -1.2198954 1.6813399 0.19287975 -0.6130001 -0.0044354545
1.3291423 -1.9953697 0.25790954 -1.2734406 -1.365054 0.46079385 -0.6624038 0.25617266
-0.5262295 0.44702604 -0.8799533 0.21642882 -1.3550527 -0.18695962 0.5735511 -0.40135348
1.8485467 -0.7132969 -0.88003445 1.0234598 0.4730426 0.97518945 0.97065544 1.4523424
0.18156894 1.3910702 1.5382444 0.5210557 1.7550645 0.43983197 -1.4157224 -0.3204924
-0.25262636 -1.4512633 -1.241246 0.07940478 -1.1840749 -0.12255448 1.870116 -1.0708007
-0.62031466 0.404568 -0.39757258 0.4207336 0.22391526 -0.0020989762 1.0969265 -0.98746645
1.4404732 1.2577585 -0.82720983 -0.93380547 -0.93934786 -0.8776993 0.93657225 1.3706298
1.2859104 -1.314839 1.3660657 1.387605 -0.012393194 -0.36793748 0.76882315 -0.44926244
0.8547586 -2.547001 1.1112999 -0.57979137 -1.5010054 -0.17402203 -1.0347813 0.044179168
0.15691324 -0.5165786 0.39608836 -0.31911394 0.3481021 -0.3141436 -0.4266653 -0.9229088
-0.41386876 0.7969583 -0.69755137 -1.0819848 -1.4176167 0.91266507 0.032585654 -1.1049708
0.5289282 -0.4699537 -0.101192825 0.57004994 1.4500095 1.7044629 0.073127344 0.71442574
-0.23525521 -0.28001574 -0.36576185 -1.2639315 0.44366628 0.8944376 -1.01139 -0.6796916
-1.5949851 1.0929289 -1.3045833 -1.9303497 0.107954 2.0574822 -0.9859866 -1.5343922
0.29534602 0.68140507 -0.05713761 0.55172503 -0.12557405 -0.1542561 -0.2209824 -0.9446728
-1.2814151 0.43564913 1.7849447 -0.7818946 -1.1575 0.6981642 -2.6710095 0.53704

fc1.weight f4 [64, 128]
00000000: 63a3 463e b3c1 c3bd 14b0 bb3c 2b54 a3be
00000010: eac8 123e 4510 823d 2332 033e 1859 94bd
00000020: d77c 12bb 286e 093e 102a 33bc 1db9 00be
00000030: 367d 033c 81fb 5bbb 6614 cfbd b97c 103e
00000040: d292 97bd 6b91 6cbd dc6c da3d 30de fd3d
00000050: 8602 f1ba 6f2e 84bd debf 42bd 888b 3d3e
00000060: 58ee 6cbd 9efc 8f3e 0011 1b3e 407b c53c
00000070: fc78 1a3e 9cd4 9e3c 3d1c 1bbe 872f 0abc
00000080: a432 b6bd 72dc 6f3d 89aa 5c3d 4120 e6bd
00000090: ed45 413d b870 15bb 154c 003e d2a7 f03d
000000a0: 8a36 e13b bf95 193e 51a3 babd b434 bdbd
000000b0: 3a00 843d c131 e63c c2cb a3bb 5141 3bbd
000000c0: 5926 f4bb 6f29 233e 88e4 6fbe 7547 c2bc
000000d0: 8506 9fbd 4902 9abd 6828 dcbd 05eb 04be
000000e0: 1b9b 083e d9d1 76bc 3254 1f3e a068 183e
000000f0: 248b 9abd c19b 7fbd 4543 b13d 6705 74bc
00000100: 645c 20bd 4dd5 03bd 7674 cbbd 0b0b d23d
00000110: 86ab b2be d6ef 133e 0b7a 373e 1daf d6bd
00000120: 5e61 af3d 3e87 52be e455 103e f9a0 58bd
00000130: ea98 3fbe ff56 373e b0ef c93c bc25 0dbe
00000140: 2e91 45be e403 5abe 7c75 9e3d f421 4abe
00000150: 43c7 d4bc e83f 12be 3790 b1ba 3346 5bbe
00000160: 9b70 c23d bedb b4be c464 61be c6c4 4a3e
00000170: c75e db3c d2c1 653c 0bb7 fabc 0cf7 5cbe
00000180: d421 603c ae91 763c bb14 d43c 6066 1b3d
00000190: 1dfb 28be 97a3 3cbd c48c b6bd 11db 0cbe
000001a0: 16d6 523d faeb fc3d 05bc bcbc 9e27 dabd
000001b0: e881 783d 5390 063d a741 5ebb 2c07 c93c
000001c0: cf63 fcbd 0503 53bc 14fd 66be e0a2 39bd
000001d0: 66a4 cd3d a3e3 70be b75f dcbd 4ca3 89be
000001e0: 386d c4bd 5529 04be 71ea 5d3e 58c3 3f3e
000001f0: f9d1 9dbd 7f09 003d 9ed0 bfbd b88b 543d
00000200: 1162 9abd 2155 573d aa49 47be e5ba 363d
00000210: fb77 2dbe e175 413e ebd7 d83c 2589 3e3e
00000220: 016b 723d 0d68 cabc 674e a0bd 7979 2b3e
00000230: b201 0fbe 68f7 563d 13b9 813d 7ce2 ebbc
00000240: 9c70 293d 34fa 103c f552 92bd ac86 cbbd
00000250: 2870 4c3e ced6 e93c f03c b23d a434 253c
00000260: 7aed 253e e6e6 a0bd 0462 623d 5ff6 473e
00000270: 1794 473d b856 853c eaf7 1cbe 5c8c 733d
00000280: 237f 17be df31 d6bd 60c1 67bd 0165 023e
00000290: 596d b73d 9610 f5bd fcb8 c83d c8c1 2abd
000002a0: a48c 0fbe b41f 5d3c a5f5 953c 0bdd a8bd
000002b0: d3fe a93d 4c02 233e b463 9d3d 2511 233a
000002c0: 63bc 4a3e 217a 9d3d fee3 6fbc 7e55 21bd
000002d0: 2310 12be 7d2d 8abb a677 e53d 85a6 c9bd
000002e0: 92c1 03be 2d43 ca3d d8dd 57bd ec7e 99bd
000002f0: 5631 263d fcda f4bc 6c5d 8fbc fc4d 39be
00000300: b996 83bd efed 403d 651e 8b3d e220 1fbe
00000310: 05d3 353c 0be8 ce3c 7de4 74bd 41f2 843d
00000320: 507e 9f3d 259b 3b3d d5c5 e33d 240b 7bbd
00000330: 94f9 8dbd be11 3fbe d183 543a 03c8 5e3d
00000340: 02fc dcbd 600b f53d 6880 ae3d 1479 853d
00000350: d96f 3bbe 8337 6c3c 81af 53bd 02c0 d8bd
00000360: 1ae9 b93d 5b4e c13d 8a1c e73d 7164 c2bd
00000370: 6fd4 b43d eaf8 063e b5ac a03d 8e70 123e
00000380: 57d5 4ebd 31d9 e83d e3ae ca3d 7d75 273d
00000390: 6423 013c f106 143e 307d 8c3c caa8 ee3d
000003a0: af6a 7cbd 2c98 92bd 54d7 dcbd 1a2a 23bb
000003b0: 33ab 07be c75e 8e3c c053 a4bd 0072 2fbe
000003c0: 55d7 c4bd 4e01 9a3d 17fb 343e 3409 b83c
000003d0: 2c8e 6dbd 13db 593d ade2 c83d c85f 803d
000003e0: 6623 e53d ac27 b33d 46e2 1d3c 0db3 c6bc
000003f0: 7883 91bc 6d07 f53d 832a f8bc 03ff 40bd
0.19398265 -0.095584296 0.022911109 -0.31900153 0.14334455 0.063507594 0.12812094 -0.07243556
-0.0022352242 0.13420928 -0.010935321 -0.12570615 0.008025458 -0.0033566656 -0.101113126 0.14110078
-0.074010506 -0.05775587 0.106652945 0.123958945 -0.0018387593 -0.06454169 -0.04754626 0.18510258
-0.05784449 0.2812242 0.15143204 0.024106622 0.15085214 0.01938849 -0.15147491 -0.008434183
-0.08896378 0.058559842 0.053873572 -0.11236621 0.047185827 -0.0022802781 0.12529023 0.11750759
0.0068729566 0.1499853 -0.091131814 -0.09238568 0.06445356 0.028099896 -0.004998655 -0.045716587
-0.0074508605 0.15933774 -0.23427022 -0.023715714 -0.077649154 -0.07519967 -0.107498944 -0.12980278
0.13340418 -0.01506468 0.15559462 0.14883661 -0.0754607 -0.062404398 0.08655409 -0.014893866
-0.03915061 -0.03218584 -0.099343225 0.102560125 -0.34896487 0.14446959 0.1791765 -0.10482619
0.08563493 -0.20559403 0.14095265 -0.05288789 -0.18710676 0.1790428 0.024650425 -0.13783926
-0.19293663 -0.21290547 0.07737252 -0.19739515 -0.025973922 -0.14282191 -0.0013547008 -0.21413498
0.09494134 -0.353239 -0.22011095 0.19801626 0.026778592 0.014023261 -0.03060486 -0.21578616
0.01367994 0.015049381 0.025888791 0.03793943 -0.16502042 -0.04605445 -0.08913568 -0.13755442
0.0514737 0.123496965 -0.023038873 -0.10652088 0.060670763 0.032852482 -0.0033913644 0.024539553
-0.123237245 -0.012879138 -0.22557479 -0.045321345 0.10041122 -0.23524337 -0.10760444 -0.26882398
-0.09591144 -0.12906392 0.21671464 0.18726861 -0.07706065 0.031259056 -0.093659624 0.05189106
-0.07538236 0.05257142 -0.19461694 0.04461183 -0.169403 0.18892623 0.026470145 0.18607004
0.059184078 -0.024707818 -0.07827454 0.16745557 -0.1396549 0.05248204 0.06334128 -0.02879452
0.04136716 0.008848716 -0.07144729 -0.09937796 0.19964659 0.02854481 0.08703029 0.010083351
0.16203871 -0.078565404 0.055269256 0.19527577 0.048725214 0.016276702 -0.15328947 0.05946003
-0.14794593 -0.10458731 -0.0565809 0.12733842 0.08956403 -0.11966054 0.09800908 -0.04168871
-0.14018494 0.013496328 0.018305609 -0.082452856 0.08300557 0.15918845 0.076850325 0.0006220511
0.19798426 0.0768931 -0.01464176 -0.039388172 -0.14263968 -0.0042168484 0.11204462 -0.09846214
-0.1286681 0.09876094 -0.0527018 -0.074949116 0.040574394 -0.029889576 -0.017500602 -0.18096155
-0.064252324 0.04710191 0.06792907 -0.15539888 0.011097674 0.025257131 -0.059788216 0.06491519
0.07787764 0.045802254 0.11121718 -0.06128992 -0.06932369 -0.18659112 0.00081068004 0.054389965
-0.10790254 0.1196506 0.08520585 0.065172344 -0.18304385 0.014417532 -0.051681045 -0.105834976
0.09077664 0.09438773 0.1128474 -0.09491814 0.08829581 0.1318089 0.07845441 0.14300749
-0.050496425 0.11369551 0.09896638 0.04088353 0.007881973 0.14455773 0.017149538 0.11653288
-0.06162518 -0.07157931 -0.10783258 -0.002489692 -0.13248901 0.017379178 -0.080237865 -0.17133331
-0.09611384 0.0751978 0.17673908 0.022465326 -0.057996914 0.05318744 0.0980886 0.06268269
0.11188392 0.08747801 0.009636467 -0.0242553 -0.017762884 0.11964307 -0.030293709 -0.047118198

fc1.bias f4 [64]
00000000: e855 84bd 5438 6e3d 923b 9bbc 0740 67bc
00000010: 70a1 e43d decb 853d f1a5 f33d e717 eb3d
00000020: 1299 b7bd 9b42 eb3d 6e35 babc ed99 c53d
00000030: 2f4e 0ebd 5c47 bdbd 70d2 e1bd e073 193e
00000040: f910 723d 4894 86bd 5f03 083e 948d 66bc
00000050: 9178 8e3c 2a46 243b f0a7 153d 0494 9abd
00000060: cb71 97bd c5b6 bf3d bf3c f8bc b2d7 893d
00000070: ccd4 223e c33b 023e 88b3 2bbe 9fee 32be
00000080: 3e4e 163d ba43 6dbd b9ea 14be a460 bebd
00000090: cf3b 1bbe e7d1 e4bd 035e 753d 53c1 933d
000000a0: 155f b13d f292 0d3d 2936 96bb 8eaa bbbd
000000b0: 1eff b1bd 9c52 2e3d 6517 313d 042e 2abe
000000c0: c184 aebd 9d95 113e dc90 0d3d f22b 8e3a
000000d0: 4a01 b4bc b458 ab3d f277 18be 422c d13d
000000e0: da35 34bd e762 a7bd 4408 073d e363 00be
000000f0: a97d 603c a695 6dbd 6b89 e03d 25ed 0ebe
-0.06461698 0.058159187 -0.018949304 -0.014114386 0.11163604 0.06533025 0.11896885 0.114791684
-0.08964743 0.11487313 -0.022730555 0.096485 -0.03474253 -0.09242126 -0.11026466 0.14985609
0.059098218 -0.06571251 0.13282536 -0.014071841 0.017391475 0.0025066235 0.03653711 -0.07547763
-0.07394751 0.093610324 -0.030302403 0.06730594 0.15901488 0.1271811 -0.16767704 -0.17473839
0.03669571 -0.057925917 -0.14542665 -0.092957765 -0.15159534 -0.11172848 0.05990411 0.07214608
0.086607136 0.034563966 -0.004584093 -0.0916339 -0.08691238 0.04255925 0.0432352 -0.16619116
-0.085214145 0.14217229 0.034561977 0.0010846837 -0.02197327 0.08366528 -0.14889506 0.1021352
-0.04399667 -0.08173161 0.032966867 -0.12538104 0.013701835 -0.058004044 0.109637104 -0.13957651

fc2.weight f4 [1, 64]
00000000: bc05 28be b3be fd3d b305 273e 5363 42be
00000010: c7fa 0a3e c19f 063e 9c0b 083e 50a4 473e
00000020: 00db 32be 55f9 3d3e 283b 3d3e 4c78 3c3e
00000030: 8463 cebd 8110 4ebe b8be d3bd fef6 983d
00000040: d07c cc3d 2aac 5ebe e7b6 183e 97d0 81bd
00000050: 96f7 0b3e 5201 1bbe 2089 85be 5ffc bcbd
00000060: 342d 8dbd a3dc 2a3e 044e 013e a409 2d3e
00000070: f26a 4d3e 922a 1f3e 9be8 32be 8b02 23be
00000080: b0c9 16be 723d 56be cac7 51be b61c 39be
00000090: ebf5 39be ce0b 21be fc89 1b3e d09c 393e
000000a0: 1f05 0a3e daae 2d3e 9bab 85bd 1fca 2fbe
000000b0: feda 1abe 0986 213e 68c0 5a3e 1c44 03be
000000c0: 7c54 39be 6602 f53d 03e2 5c3d 174b 35be
000000d0: a3cd 323e b204 1c3e a936 46be c7a7 273e
000000e0: 21fc 02be 3797 a4bd 9553 2d3e 3a09 28be
000000f0: 81d2 2cbe e552 2abe 0058 6d3e 82ea 6e3e
-0.16408437 0.123898886 0.16310768 -0.18983202 0.13572226 0.13146879 0.13285679 0.19496274
-0.17466354 0.18552144 0.18479598 0.18405265 -0.10077575 -0.20123483 -0.10339111 0.07468985
0.099847436 -0.21745363 0.14913522 -0.063386135 0.13668665 -0.15137222 -0.2608118 -0.092278235
-0.068933874 0.16685729 0.12627417 0.16898209 0.20060328 0.15543583 -0.17471544 -0.15918939
-0.14725375 -0.20921877 -0.2048637 -0.18077359 -0.18160217 -0.1572716 0.15189356 0.18126225
0.13478516 0.16961232 -0.06526872 -0.17166947 -0.15122601 0.15773787 0.2136246 -0.1281895
-0.18098634 0.11963348 0.05392648 -0.17704426 0.17461257 0.15236166 -0.19356789 0.16372596
-0.12791492 -0.080366544 0.16926415 -0.1640977 -0.16877176 -0.16633184 0.231781 0.23331645

exp_avg f4 [11, 128]
00000000: 141c f136 84c8 b2b7 78e9 4338 243b c7b7
00000010: 7605 2038 7fc4 c4b7 36d8 c8b7 2bfb e4b7
00000020: 5517 4d37 f0dc ef37 a088 a6b7 b0dc 09b8
00000030: a628 1238 c4bd 4eb8 8662 78b7 ecbf 3e38
00000040: f685 fab7 4bbc 4634 fc30 4338 1259 0038
00000050: 2e43 2bb8 3d46 72b8 bf16 6337 7194 47b6
00000060: 5bf9 9cb6 cdd4 0d38 2efd 82b7 b54e 23b8
00000070: e62f aa36 11f1 3237 a0c1 6036 be60 3b35
00000080: 0c01 9cb6 212c 4338 8b83 8336 0f78 68b7
00000090: 639d 3a36 63d3 cc37 6043 08b7 feb0 2038
000000a0: 728c 2638 ddea 4635 4cfa 26b8 184d 4f37
000000b0: 3306 bdb7 4419 08b8 29f8 d3b7 6306 a236
000000c0: 7573 50b8 7c8a 08b7 266c 82b7 c536 cab5
000000d0: 559f b737 eef5 7737 4ee2 fab7 cf6f 7a38
000000e0: b8b8 db37 00c3 6cb7 1c74 1d37 ea33 ef37
000000f0: 3775 86b8 f29f 3938 182c fb37 7058 f037
00000100: 4cb2 d537 816e 85b7 8f22 ec36 3755 9037
00000110: c738 8e37 16c2 1538 0722 c337 fa69 6eb8
00000120: 71eb f3b7 4434 1fb7 3148 dcb6 f71e 4d37
00000130: 2ccb 1b38 47f9 1f38 db57 8637 4c6f 69b7
00000140: 4736 b936 5859 51b8 8a30 00b8 9a5d c0b6
00000150: 0b56 3538 1e4d b1b7 eb34 1b38 3fee 0f37
00000160: 4b37 5437 cb3a 7ab8 be70 99b6 dbae 2438
00000170: be5a dbb7 9208 16b8 918e dab7 3031 05b8
00000180: ea74 0f37 5e88 deb6 ad7b a8b7 86f5 acb7
00000190: d5cc 2ab8 ab62 0ab8 dce8 c6b7 6483 2eb7
000001a0: 1740 3bb6 7bd3 eab6 9adc 4938 8918 40b7
000001b0: 9014 0138 0fcf 9137 e2c7 3438 cabe 3638
000001c0: bc8f 3637 8945 1bb8 0a07 84b8 7684 9bb7
000001d0: 8518 8736 5d06 0fb8 e3cc 6db8 2998 0eb7
000001e0: a06f 65b7 7c17 2eb8 4e42 7c36 18af a637
000001f0: ac94 f2b5 1510 cfb7 1a27 68b7 076a 1938
00000200: 6f16 b437 c4cc 05b6 f786 1aba cae7 6e38
00000210: 9c19 05ba 80ee a839 a1e5 2b39 5fb6 c239
00000220: 6ac0 62b9 fa59 50b9 958f 0c39 3e2e f339
00000230: 1cf6 11ba df76 1b3a 0170 0539 73f9 0dba
00000240: f157 063a 11aa ff37 13ba 36ba 4522 ceb9
00000250: ec9f 023a c963 4d3a 9e36 10b9 8f6e 7b39
00000260: bcd6 9b38 a5de 16b9 3354 fd39 9ff6 193a
00000270: cdd2 6639 e739 b4b8 c17d 91b9 d264 d7b8
00000280: 1a3f 8139 83b0 2cba d129 01b9 29ac ef38
00000290: 98cb 37b8 9049 72b9 9f8b a639 0fe2 0aba
000002a0: ed35 0eba 2bd1 a537 5224 9039 0b03 3cb9
000002b0: 6418 f139 5f40 bb39 ab7f 6639 c60a 55b9
000002c0: fb18 473a 8c99 9439 2bdd c638 75f9 b8b6
000002d0: f4f4 edb9 5f0f a6b9 1636 a339 1366 3bba
000002e0: 757e c7b8 8ba2 0db8 aaa2 f838 57dc 76b9
000002f0: 9ec8 643a d6af f3b9 92bf c1b9 5cbd f5b9
00000300: 2553 7eb9 bbf8 3138 09b1 2bb9 5574 92b9
00000310: 730d c1b9 22f6 b0b9 e96f fcb9 884d 2f3a
00000320: 5c9f d139 2adf 07b8 2547 5b39 44a1 87b9
00000330: 2b46 14ba de15 d2b9 aea9 6db9 c5d4 60b8
00000340: f925 55b8 43cd 1c3a 79c1 db39 097a bc37
00000350: 2247 1fba 9820 8139 7476 09ba 0ca8 02b9
00000360: 7d02 32b9 baed 2c3a 464f 1138 3e29 e4b9
00000370: 33c2 b439 e839 f339 7be6 c039 30f4 9839
00000380: 328f 8eb7 7719 8c38 e0b4 cd38 f785 6639
00000390: 509c 173a e16f e039 5efd 7239 57f1 4637
000003a0: 3a75 84b9 9307 af39 a79d 65ba 7cb2 a7b8
000003b0: 092f bab9 9c09 7db8 096b 29ba 89b2 25ba
000003c0: aca9 51b9 0358 013a a990 2d3a a522 e139
000003d0: c94f 78b8 9143 8139 4b2c 303a 2abf 97b8
000003e0: fed9 db38 249b 053a d7b7 4cb7 5c29 7bb9
000003f0: e275 85b7 6e41 bb39 9125 f8b8 6369 fab9
7.1856284e-06 -2.1312626e-05 4.6709058e-05 -2.3750188e-05 3.815206e-05 -2.3456521e-05 -2.3942539e-05 -2.7296677e-05
1.2224385e-05 2.8593902e-05 -1.9852363e-05 -3.2868877e-05 3.484697e-05 -4.929096e-05 -1.4804891e-05 4.547827e-05
-2.9864703e-05 1.8508688e-07 4.6537243e-05 3.060053e-05 -4.0832143e-05 -5.776271e-05 1.353555e-05 -2.9739715e-06
-4.678191e-06 3.3815206e-05 -1.5615104e-05 -3.893553e-05 5.071971e-06 1.0665754e-05 3.3491306e-06 6.9803707e-07
-4.649284e-06 4.653272e-05 3.919418e-06 -1.3856231e-05 2.780777e-06 2.441713e-05 -8.121919e-06 3.831181e-05
3.9708284e-05 7.410252e-07 -3.981059e-05 1.2356111e-05 -2.2533442e-05 -3.2448457e-05 -2.5268719e-05 4.8287197e-06
-4.9698592e-05 -8.138475e-06 -1.5547568e-05 -1.5066113e-06 2.1889495e-05 1.4779607e-05 -2.9907704e-05 5.9708775e-05
2.619285e-05 -1.4112098e-05 9.384963e-06 2.8515195e-05 -6.411451e-05 4.4256398e-05 2.9942064e-05 2.8651411e-05
2.5474605e-05 -1.5906293e-05 7.0373712e-06 1.7205819e-05 1.6954158e-05 3.5705125e-05 2.3261657e-05 -5.684232e-05
-2.9077493e-05 -9.489308e-06 -6.564915e-06 1.2226162e-05 3.71441e-05 3.814071e-05 1.6014956e-05 -1.3913796e-05
5.5197484e-06 -4.991269e-05 -3.0562784e-05 -5.7329426e-06 4.3233897e-05 -2.1135955e-05 3.7004163e-05 8.578935e-06
1.2649059e-05 -5.96594e-05 -4.5728802e-06 3.9263494e-05 -2.614909e-05 -3.577077e-05 -2.6054013e-05 -3.175548e-05
8.550685e-06 -6.631991e-06 -2.0084752e-05 -2.0618329e-05 -4.0721923e-05 -3.2993656e-05 -2.3711873e-05 -1.04018e-05
-2.7902477e-06 -6.998363e-06 4.8127586e-05 -1.1449804e-05 3.0775147e-05 1.7381766e-05 4.31015e-05 4.3569868e-05
1.0881511e-05 -3.701964e-05 -6.2955616e-05 -1.8539122e-05 4.026168e-06 -3.4099783e-05 -5.669602e-05 -8.499287e-06
-1.3675453e-05 -4.1506704e-05 3.758952e-06 1.9870276e-05 -1.8073674e-06 -2.4683812e-05 -1.3837382e-05 3.657679e-05
2.1468119e-05 -1.9937734e-06 -0.0005894745 5.6959492e-05 -0.00050773635 0.00032221153 0.00016393374 0.0003713844
-0.0002162472 -0.00019869945 0.00013404929 0.00046383025 -0.0005567984 0.0005930494 0.00012725593 -0.0005415894
0.00051247986 3.0477562e-05 -0.0006970476 -0.00039316915 0.00049829367 0.00078349985 -0.00013753257 0.00023978412
7.430973e-05 -0.00014388056 0.00048318654 0.0005873236 0.00022013039 -8.593854e-05 -0.0002775025 -0.00010270778
0.00024651812 -0.00065875816 -0.00012317977 0.000114284754 -4.382021e-05 -0.00023106323 0.00031766013 -0.00052979676
-0.00054249057 1.9766934e-05 0.0002749288 -0.00017930211 0.00045985274 0.0003571538 0.0002198207 -0.00020317276
0.000759497 0.0002834316 9.4825715e-05 -5.512668e-06 -0.00045386667 -0.0003167344 0.0003113008 -0.0007148694
-9.512614e-05 -3.37684e-05 0.0001185586 -0.00023542471 0.0008727404 -0.0004647958 -0.0003695456 -0.00046871125
-0.00024254301 4.2431737e-05 -0.00016373782 -0.00027933964 -0.0003682185 -0.0003375272 -0.00048148565 0.0006687273
0.00039982318 -3.2394346e-05 0.00020911971 -0.0002586936 -0.0005656208 -0.00040070614 -0.00022665292 -5.360392e-05
-5.0818522e-05 0.0005981514 0.00041915083 2.2468173e-05 -0.0006075968 0.00024629082 -0.0005243786 -0.00012460368
-0.0001697633 0.00065967033 3.4644523e-05 -0.00043518277 0.00034476965 0.00046391715 0.00036792815 0.00029173633
-1.69944e-05 6.6804634e-05 9.808852e-05 0.00021984415 0.0005783485 0.00042807966 0.00023173305 1.1857911e-05
-0.00025264343 0.00033384244 -0.0008759149 -7.996426e-05 -0.00035511728 -6.032885e-05 -0.0006462788 -0.00063208543
-0.00019995001 0.0004934074 0.00066209823 0.00042941156 -5.9202113e-05 0.00024655138 0.00067204674 -7.235848e-05
0.00010483338 0.0005096665 -1.2202151e-05 -0.00023952633 -1.5909729e-05 0.00035716168 -0.00011832559 -0.00047762235

exp_avg_sq f4 [11, 128]
00000000: 6d45 df31 aeba e433 d754 0635 0a67 0434
00000010: adb2 be34 61fd e433 4dda 1234 49ee 5734
00000020: 0267 9533 8df5 3434 96b9 d533 9c39 6334
00000030: 535f a734 f795 1335 f98a 7d33 c360 0435
00000040: f80c 4d34 de73 dc2f d689 1535 7b3c 4134
00000050: 8362 c234 cc3a 6435 cd29 5b33 3608 3b30
00000060: 9c5c 0231 9082 8c34 bd89 0233 3fce b334
00000070: 4a08 f831 d616 6832 42ed 0e30 cd63 6731
00000080: 416d 7d32 39dd 0f35 b964 b030 1dcb 1b33
00000090: f598 d52f 7df1 2a34 7e4c b131 9aa4 9d34
000000a0: b637 ac34 6ec5 1630 106d cd34 fe07 1033
000000b0: 75ab 1634 807b 9034 87f6 3034 08ba e331
000000c0: 001c 0e35 ac2e 6b32 78e5 2533 d3fb 7b30
000000d0: f813 f033 cb5a 5033 0dc4 8934 ff1b 5e35
000000e0: 087d 1e34 67a1 0033 fa43 cf32 d198 2434
000000f0: 3132 8a35 ddc2 e934 b61d 7b34 3298 2f34
00000100: f5da 1434 bb51 4c33 a26b 9432 98ff 8733
00000110: 3670 9833 df83 bf34 2fbd 2834 4061 5335
00000120: 2b1d 4234 6e41 8c32 d3bd 8332 b81b a432
00000130: b19a a134 ddd1 b434 07a2 9633 efc8 6a33
00000140: 296a 8731 a8cb 2335 b8f7 7d34 c397 a631
00000150: f8a5 e634 8282 f433 bd22 a034 47e6 9b32
00000160: 14be 5e33 c46c 6c35 201b aa30 399d be34
00000170: 1fb3 2534 189c 9934 97be 3634 9419 6b34
00000180: 6812 c732 8870 6831 9e8c be33 7428 0634
00000190: da5a db34 f6df 7934 2982 1534 4055 7c32
000001a0: 842a 9531 068a 0133 6c16 1c35 79c4 5d33
000001b0: 6f89 8534 bd39 8c33 e7f3 f334 b829 e134
000001c0: 7345 1333 8cf6 be34 3b0d 7835 8af9 d733
000001d0: d4c9 3131 3c6c 9434 1310 5735 b4fc 1d32
000001e0: 94e5 1533 acff c634 4bc0 dd31 fa16 b133
000001f0: 5692 7a2f 1176 f033 c7e8 4433 6132 c934
00000200: aab4 4432 5426 2b30 5e3e 8e37 7412 3234
00000210: 3f18 5537 8bf6 a136 d7aa d535 9117 f536
00000220: 3e18 5436 b9a7 f235 90aa a635 d39c 2637
00000230: bf84 8437 ac24 8f37 007c 5935 dd9a 8237
00000240: 3c0c 5037 9d80 4833 a0bc d737 fe80 e736
00000250: 2fa2 4f37 2e83 0a38 27f4 8a35 2c30 3f36
00000260: 2ff4 5834 8c65 b435 e161 1637 7417 8c37
00000270: 0ace 0636 2c7a 6834 279e 4236 8864 0a35
00000280: ed70 4336 3749 bf37 8b20 5535 c540 2135
00000290: f05a 6f33 4eb5 3b36 9959 8c36 bad7 5237
000002a0: e91d 6b37 577e 4332 35e1 9f36 2860 c835
000002b0: 7263 3137 a256 d336 f162 6036 c5c4 e635
000002c0: 26fe e337 4617 8536 d9ce b034 4257 0d33
000002d0: e143 2537 59fc 9a36 b1f3 bb36 ee72 d337
000002e0: 8ef9 0735 9cfb 7733 da08 1d35 651c 2f36
000002f0: 82a6 2438 ead9 3b37 f193 d936 2692 2337
00000300: 4521 3636 e2a1 5433 a64a b635 41ca 6536
00000310: 6ddd d336 56b7 f436 e7bf 5637 7840 c137
00000320: 2f8c f236 84fd 1133 1ca2 1836 8d51 3a36
00000330: da2b 7137 2e14 0937 dbe7 3d36 1354 bd33
00000340: 8150 8833 9547 a637 f6b7 1537 64f5 4732
00000350: 2167 9537 919a 7936 3e93 5f37 2c23 5b35
00000360: 139c e435 63fb ce37 1126 3633 4377 1937
00000370: 766f cc36 e211 3237 4a93 e936 80b6 9e36
00000380: 9a27 6033 17ea da33 c2fa 1b35 19d1 3336
00000390: bf24 9137 a610 1737 ebc7 2c36 dec6 e831
000003a0: dd2e 4436 9ca4 cf36 60bf 2038 84ca 2834
000003b0: db37 e136 c607 fe33 4f46 b937 f8cf 9d37
000003c0: dcd7 f835 3242 5d37 8ee0 ca37 8994 1537
000003d0: 3c4c e833 15e2 5636 e6a6 bd37 0f49 6534
000003e0: 3f4c e434 53e7 4c37 be64 0932 432e 2636
000003f0: d8e8 be33 d006 bb36 5b46 2e35 ef56 5737
6.498047e-09 1.0651034e-07 5.004235e-07 1.2330943e-07 3.5520262e-07 1.0663167e-07 1.3676727e-07 2.0110123e-07
6.95709e-08 1.6853137e-07 9.952343e-08 2.116198e-07 3.1175531e-07 5.4979995e-07 5.9032548e-08 4.931464e-07
1.9096831e-07 4.0100095e-10 5.5707403e-07 1.7996528e-07 3.6206993e-07 8.502218e-07 5.102793e-08 6.804187e-10
1.8970132e-09 2.617203e-07 3.0393256e-08 3.3491412e-07 7.2186923e-09 1.350937e-08 5.199646e-10 3.3671654e-09
1.475138e-08 5.359357e-07 1.2834313e-09 3.627348e-08 3.8853157e-10 1.5920337e-07 5.160074e-09 2.9363292e-07
3.2078032e-07 5.4850247e-10 3.826358e-07 3.353488e-08 1.4032214e-07 2.6911948e-07 1.6480963e-07 6.627719e-09
5.293987e-07 1.3689412e-08 3.8625757e-08 9.167113e-10 1.1179503e-07 4.851135e-08 2.5660884e-07 8.2742184e-07
1.4760383e-07 2.9949117e-08 2.4128884e-08 1.5329285e-07 1.0296409e-06 4.3541414e-07 2.3387005e-07 1.6353513e-07
1.386323e-07 4.7571785e-08 1.7278413e-08 6.3329196e-08 7.0984626e-08 3.567247e-07 1.5715044e-07 7.874514e-07
1.8078269e-07 1.6327899e-08 1.533673e-08 1.9104718e-08 3.010114e-07 3.3680308e-07 7.014392e-08 5.466512e-08
3.941086e-09 6.101859e-07 2.365258e-07 4.848489e-09 4.2961597e-07 1.13858746e-07 2.9827598e-07 1.8149093e-08
5.1861278e-08 8.8075126e-07 1.2376837e-09 3.5504652e-07 1.5431986e-07 2.8612044e-07 1.7019407e-07 2.1895386e-07
2.317502e-08 3.382441e-09 8.8731426e-08 1.2494439e-07 4.0858032e-07 2.3271409e-07 1.3924058e-07 1.4687714e-08
4.341304e-09 3.0160685e-08 5.8147157e-07 5.1634263e-08 2.4873177e-07 6.5297606e-08 4.543974e-07 4.193987e-07
3.428927e-08 3.5569644e-07 9.240645e-07 1.00571086e-07 2.5871616e-09 2.76459e-07 8.011713e-07 9.196061e-09
3.4900566e-08 3.70664e-07 6.4538077e-09 8.246384e-08 2.2789357e-10 1.1197347e-07 4.5846516e-08 3.7475823e-07
1.144978e-08 6.2263905e-10 1.6956761e-05 1.6584255e-07 1.2701435e-05 4.8268753e-06 1.5919458e-06 7.3043125e-06
3.1604573e-06 1.8079219e-06 1.2417604e-06 9.9308845e-06 1.5797441e-05 1.7064005e-05 8.1019243e-07 1.5569321e-05
1.2400615e-05 4.6683102e-08 2.5717833e-05 6.899353e-06 1.2375923e-05 3.3023935e-05 1.0352859e-06 2.8489258e-06
2.0205401e-07 1.3440599e-06 8.963486e-06 1.6700222e-05 2.0087487e-06 2.165113e-07 2.900031e-06 5.15553e-07
2.9122996e-06 2.2803068e-05 7.939604e-07 6.0071426e-07 5.572923e-08 2.7970705e-06 4.1827557e-06 1.2567203e-05
1.40140555e-05 1.137922e-08 4.764787e-06 1.4929146e-06 1.0573176e-05 6.2983754e-06 3.3436193e-06 1.7193603e-06
2.7178856e-05 3.9664183e-06 3.2933056e-07 3.290848e-08 9.850571e-06 4.618935e-06 5.6014037e-06 2.5206678e-05
5.065457e-07 5.7738006e-08 5.849994e-07 2.609356e-06 3.925572e-05 1.1196806e-05 6.4843266e-06 9.749585e-06
2.7139479e-06 4.9507328e-08 1.3581782e-06 3.4241386e-06 6.3140674e-06 7.29311e-06 1.2800075e-05 2.3037413e-05
7.2284815e-06 3.3991014e-08 2.2744125e-06 2.7763629e-06 1.4374929e-05 8.170535e-06 2.8298152e-06 8.816291e-08
6.347637e-08 1.9822075e-05 8.923924e-06 1.163912e-08 1.7810207e-05 3.719386e-06 1.3326118e-05 8.163504e-07
1.7032747e-06 2.4674175e-05 4.24098e-08 9.147278e-06 6.0926495e-06 1.061379e-05 6.961088e-06 4.7300127e-06
5.219008e-08 1.0193997e-07 5.81069e-07 2.679479e-06 1.7302458e-05 9.004178e-06 2.5746365e-06 6.7746972e-09
2.9233554e-06 6.188244e-06 3.8325205e-05 1.5719894e-07 6.712025e-06 1.1829211e-07 2.2086459e-05 1.8812701e-05
1.8540263e-06 1.3188039e-05 2.4184843e-05 8.915676e-06 1.0817209e-07 3.2020082e-06 2.2608274e-05 2.1353866e-07
4.2523786e-07 1.2213207e-05 7.997356e-09 2.4762855e-06 8.8899185e-08 5.5738274e-06 6.492243e-07 1.2835239e-05

exp_avg f4 [64, 128]
00000000: 3e0d 55b8 b4f9 20b6 45fc 9536 7d70 a137
00000010: bf59 4e37 5f5a 0137 7522 fd37 c257 7b36
00000020: 22fa 34b8 a12b 6c36 496e 08b7 d35f 9138
00000030: 024c b9b7 fba4 85b7 7588 1cb8 7bf3 1337
00000040: 6e9f c337 0e29 1c38 4026 b1b7 b78a 4336
00000050: dcc3 3f37 980c 2438 7727 6438 6cd5 29b7
00000060: 4f09 bd36 ca88 76b6 f16f a3b7 94fa 47b7
00000070: a7be 5737 2bfc c636 7e58 c137 f018 5338
00000080: 7ede a8b7 8c8d 37b7 3d50 ac37 d509 32b8
00000090: c33d 8436 1bf4 f137 13a3 0fb7 2caa 7a38
000000a0: 8792 9137 eb25 07b7 0d64 8037 dda7 3138
000000b0: 6ab3 8637 845f 2bb8 ac88 ca36 1e7a 86b7
000000c0: ce06 cf37 f23c 89b7 e109 10b8 d768 d7b7
000000d0: 8681 2337 d42d 2038 66d7 5f36 fb95 7e36
000000e0: 31f4 0138 157e 8bb7 67ed 4ab8 7009 b5b6
000000f0: 0af5 9535 578b ae38 b4e8 5038 7d09 b337
00000100: 7f42 19b8 2723 17b7 9209 9038 e2d1 d8b5
00000110: 01b6 c137 619b 56b8 742d 9eb7 7ec1 bd37
00000120: 5b8c 8d36 98cd 10b7 f6a5 4d37 1088 e537
00000130: 1a70 1d37 5002 deb7 1f47 b836 085a a4b8
00000140: 6d48 4838 6c50 89b8 64e3 4338 0bd4 ea37
00000150: d8a9 2738 305d a4b7 75bd d8b6 80f8 3d38
00000160: eaeb 75b8 a270 1237 8318 9a37 07a2 9b37
00000170: b363 5b37 afc4 d6b6 a616 cf36 3694 a835
00000180: d2db fc36 472e 03b8 1d32 7638 29dc 2c38
00000190: b07d a637 1dba ccb7 1a87 3d38 1e4e b7b7
000001a0: 793c 91b8 4ca8 a2b7 e135 25b7 021c 8b38
000001b0: 83e3 38b7 866e fab6 39c8 1837 d71c d5b6
000001c0: 94f0 f437 e70a e4b7 95dc 8b37 c97e bdb7
000001d0: c109 a9b7 f65a 6237 f678 35b8 5088 6737
000001e0: bbf7 3338 a3a6 c7b7 cb05 8c36 8123 9137
000001f0: 4187 2db7 2ed4 0eb7 8550 6337 b7f0 2337
00000200: 0618 8039 3078 dab8 978d 1fb8 b356 43b9
00000210: b8f6 b1b8 ad1f 5f38 eea1 d7b8 367d bc37
00000220: 1611 0039 3de3 be36 8f79 a8b7 9c5e 12b9
00000230: 9b48 19b8 d66e 9538 bbc7 2039 72d2 37b8
00000240: 5eb6 3338 1a22 2eb9 941f a638 9a7c 3038
00000250: 665a 9937 894e bbb8 7059 acb8 8149 1b39
00000260: e3ee 0b37 6b5d f038 ac12 3639 5bab 0239
00000270: 09aa 5638 6b7d fc37 4f5f 56b9 e7c5 35b9
00000280: 1eef f737 cda4 95b8 c311 dab8 5b52 0439
00000290: 59ae 8cb8 e1d1 adb8 46a5 1d39 49c9 86b9
000002a0: f0e6 adb8 99f4 8838 3eeb 9bb8 869a 17b9
000002b0: ec48 d6b7 51e3 1c39 b8c7 0438 e36f b1b7
000002c0: db5b 2136 36b4 ec38 7670 3f38 6266 de37
000002d0: 2ce0 81b8 982e 24b9 2ad6 1a38 9c15 3438
000002e0: 794c b2b8 a365 1d38 4d95 6639 1c6a 7638
000002f0: 840d 1036 72d5 9cb9 76b2 cdb8 799b 13b9
00000300: 80e3 1039 b076 a9b8 5857 2bb9 4c85 06b8
00000310: 569b 22b9 da0d 2d39 6a0d 1138 bff7 b4b8
00000320: b127 fc37 5c88 c9b7 d8dd 8336 8b3b cbb8
00000330: 8ebc b6b7 7b51 a238 d58c e436 4510 6d39
00000340: 18b1 7cb9 5041 4e39 0c59 2bb9 261d 3bb9
00000350: cb82 49b9 5df7 d238 b895 4337 e1e2 40b9
00000360: 9bc1 6439 354d bdb8 6c6b 8bb8 9775 fcb7
00000370: 6083 a838 0920 1639 cb4a 79b5 c950 eab6
00000380: 6131 88b8 3700 0c39 2570 0ab9 be3f 62b9
00000390: a58c 8eb8 d516 e238 15fc 53b9 12a3 eb37
000003a0: 17cb 3939 f238 0739 a13e fcb7 61c1 9eb9
000003b0: d664 d737 4967 ca38 7601 afb8 85a1 e4b8
000003c0: f36c 02b9 fcc4 0339 694c 8db8 83aa 8038
000003d0: 0995 f737 5c6a 53b8 f83d 3639 744f f1b8
000003e0: bc8b 32b9 da40 d938 c32b 8038 c539 cab8
000003f0: d6ff 36b7 9613 d538 0f87 68b9 d0f3 abb7
-5.079549e-05 -2.3987204e-06 4.469914e-06 1.9245077e-05 1.22994525e-05 7.71004e-06 3.0175996e-05 3.7452996e-06
-4.31483e-05 3.5192136e-06 -8.131909e-06 6.9319874e-05 -2.2089112e-05 -1.593166e-05 -3.7320384e-05 8.8185725e-06
2.3320052e-05 3.7231533e-05 -2.1117856e-05 2.9138007e-06 1.1430089e-05 3.9112376e-05 5.439619e-05 -1.0122876e-05
5.6337226e-06 -3.6736478e-06 -1.9483241e-05 -1.1919667e-05 1.2859388e-05 5.930216e-06 2.30486e-05 5.0329545e-05
-2.0130767e-05 -1.0940606e-05 2.0541362e-05 -4.2447664e-05 3.9410966e-06 2.884311e-05 -8.561433e-06 5.976313e-05
1.735358e-05 -8.0554555e-06 1.5305379e-05 4.2356423e-05 1.6057591e-05 -4.0858533e-05 6.03598e-06 -1.603091e-05
2.4679492e-05 -1.6360053e-05 -3.4341476e-05 -2.5678817e-05 9.745714e-06 3.8189653e-05 3.3354968e-06 3.793625e-06
3.0983418e-05 -1.6628803e-05 -4.838165e-05 -5.395319e-06 1.1172681e-06 8.3229206e-05 4.9807786e-05 2.1342881e-05
-3.6539972e-05 -9.008486e-06 6.868238e-05 -1.6154338e-06 2.3092145e-05 -5.1166284e-05 -1.8856234e-05 2.2620658e-05
4.218467e-06 -8.630937e-06 1.2257593e-05 2.7362286e-05 9.38403e-06 -2.646554e-05 5.491907e-06 -7.836899e-05
4.7751168e-05 -6.547649e-05 4.6703397e-05 2.7993714e-05 3.9974082e-05 -1.9593717e-05 -6.4593573e-06 4.5292545e-05
-5.8632264e-05 8.7285025e-06 1.8369645e-05 1.855289e-05 1.307663e-05 -6.400594e-06 6.1717174e-06 1.256011e-06
7.5357757e-06 -3.1275933e-05 5.8697642e-05 4.1213036e-05 1.984727e-05 -2.440536e-05 4.5186935e-05 -2.1851676e-05
-6.925403e-05 -1.9390274e-05 -9.847311e-06 6.633253e-05 -1.1020226e-05 -7.463447e-06 9.106524e-06 -6.351252e-06
2.9199095e-05 -2.7184795e-05 1.6672808e-05 -2.2589595e-05 -2.0150912e-05 1.3491828e-05 -4.3266416e-05 1.3800411e-05
4.2907643e-05 -2.3800245e-05 4.1729995e-06 1.730188e-05 -1.0343095e-05 -8.5132615e-06 1.3549002e-05 9.771603e-06
0.0002443196 -0.00010417437 -3.804042e-05 -0.00018628947 -8.485973e-05 5.3196844e-05 -0.00010282161 2.2469652e-05
0.00012213396 5.6888953e-06 -2.0083766e-05 -0.0001395889 -3.654566e-05 7.1255185e-05 0.00015333194 -4.3826592e-05
4.284677e-05 -0.00016606637 7.921379e-05 4.2077714e-05 1.8281116e-05 -8.931483e-05 -8.218258e-05 0.00014809334
8.340666e-06 0.00011461492 0.00017363828 0.00012461601 5.1179934e-05 3.0099143e-05 -0.00020444136 -0.0001733523
2.9556042e-05 -7.13557e-05 -0.000103983584 0.00012619181 -6.708195e-05 -8.288376e-05 0.00015034256 -0.0002570844
-8.292298e-05 6.530545e-05 -7.434793e-05 -0.00014458047 -2.5544745e-05 0.00014962001 3.1657255e-05 -2.1152146e-05
2.4044336e-06 0.00011286924 4.5642686e-05 2.6512138e-05 -6.1929546e-05 -0.00015657616 3.6915917e-05 4.293547e-05
-8.5019456e-05 3.7526373e-05 0.00021990128 5.8749793e-05 2.146554e-06 -0.00029913668 -9.808403e-05 -0.0001407693
0.0001381766 -8.080655e-05 -0.00016340369 -3.2072232e-05 -0.00015507391 0.00016503726 3.4583187e-05 -8.629215e-05
3.0059224e-05 -2.4024564e-05 3.9299302e-06 -9.690885e-05 -2.1783893e-05 7.739939e-05 6.8113245e-06 0.00022608142
-0.00024098565 0.00019670022 -0.00016341003 -0.00017844568 -0.00019217578 0.00010059655 1.1657765e-05 -0.00018395066
0.00021815898 -9.026603e-05 -6.6480454e-05 -3.0095498e-05 8.035335e-05 0.00014317049 -9.2868567e-07 -6.983148e-06
-6.494183e-05 0.0001335152 -0.00013202483 -0.00021576785 -6.797285e-05 0.000107807726 -0.00020216436 2.8090119e-05
0.00017718632 0.00012895817 -3.0069905e-05 -0.00030280187 2.5676953e-05 9.651349e-05 -8.3449224e-05 -0.000109019726
-0.00012438353 0.00012566516 -6.7376364e-05 6.135276e-05 2.9514094e-05 -5.0405375e-05 0.00017379958 -0.00011506575
-0.00017027458 0.00010359446 6.111667e-05 -9.642871e-05 -1.0907612e-05 0.000101602796 -0.00022175557 -2.0498323e-05

exp_avg_sq f4 [64, 128]
00000000: 6fc9 a234 8da7 b234 f651 d734 9526 0f35
00000010: 47e2 8535 ecd6 1b33 e610 8e34 368e e033
00000020: f862 1c34 a661 1533 2e8f b633 5ceb 5035
00000030: 885a c435 4574 6c34 0556 1634 8a5e 9e34
00000040: 5ff6 5234 65f1 6133 6454 ce34 b232 8132
00000050: 0876 e034 f2e7 8435 99f0 2735 258d b434
00000060: 3695 d931 0841 5034 b116 d533 2a73 9733
00000070: c8ca 8632 6cc9 fb33 91b1 2f34 b6bb 7e33
00000080: b00c 1033 ef11 0c34 9e69 2f32 a488 0f35
00000090: c1f0 4933 72fd 9134 9e93 2134 3816 d234
000000a0: 22e0 9a33 002e 1b33 f5f5 5335 e00e ce33
000000b0: cb8e f833 e8cc 8635 a54a fc33 1bd1 4033
000000c0: 3985 c735 1428 4d34 6194 1133 19d1 3f34
000000d0: ef36 c033 6222 2e33 315e 9635 451f 4c34
000000e0: b6b9 5433 a6de 4434 8dbc 0d35 3329 2d35
000000f0: e3fd 7532 2637 d334 2b56 9434 f339 6033
00000100: 8800 5f33 2af6 7234 a80e bc34 f730 ad33
00000110: 2a62 1632 da20 3034 6c4f df32 8439 6335
00000120: e23b 7534 791a 2b33 2d3c 3933 31da cf33
00000130: d71f a531 17e3 c434 6d34 6633 1e71 2634
00000140: 5cf9 8433 9181 1734 643b 1534 e857 ac34
00000150: 195d a135 68d5 0a33 f6a6 3735 15a3 0a34
00000160: 3362 2c34 18a0 3633 49f9 1133 6ed8 e733
00000170: 40cf 3636 4f64 d235 bc80 0a34 180d 8433
00000180: 9b2a 8a34 77d7 1433 21fe 8435 e28e 8234
00000190: d30d b733 ccd7 3435 bb7b b834 468d da33
000001a0: 1645 1534 a366 4033 d288 4732 9e58 4435
000001b0: 3f75 8233 644c 3b34 ee9d 9333 4fcd b033
000001c0: 0aa3 8334 1a22 5633 b307 3a33 5163 1933
000001d0: d4fb dc33 be14 ef34 cf44 8534 e353 c733
000001e0: 03f5 8f34 f8d9 4235 f3ab 6b34 1ea2 a234
000001f0: b8ad 6932 76bc 4c33 98d3 0934 1276 2234
00000200: 2b28 0635 696c a135 b4c8 a136 17a9 6d35
00000210: 504b 3637 3e67 c435 e3db 2d36 f4f1 a235
00000220: a54e a735 7030 ba34 9f44 9735 1215 2437
00000230: ca02 b737 9c31 6d36 4f77 b735 05f4 6136
00000240: 0e6f 7f36 e9c5 0435 6fb7 4736 4271 cc33
00000250: 60eb bc36 d583 1537 d3f2 f636 536e 7f35
00000260: 3361 4d33 222e 8934 6dd0 8c34 6d56 0236
00000270: 6aeb 8534 a215 4835 c5df 8734 4dd4 1e35
00000280: ef03 7b34 4aef 9036 cb20 0134 b674 8e36
00000290: f5ab b934 9d63 3336 58bf cd34 4472 e336
000002a0: c06e 9a35 03dc 1034 c284 bd36 49df db35
000002b0: b203 3635 9cc1 4b37 efc2 f535 a889 7e35
000002c0: 3342 9137 fbb0 fc34 9612 d134 061d 8335
000002d0: 9806 de35 0d38 1f34 243f 4737 4e8d 0336
000002e0: 54b9 1535 7a67 d235 34b6 2036 6c46 b336
000002f0: e2c6 fb33 0d77 c636 1e92 d435 3073 da35
00000300: 078f 0735 43cf 8435 4eef 5d36 47ce c635
00000310: fc83 8535 0b9a 6e35 3677 5a34 77e2 ec36
00000320: 16dc 7e36 6a97 7d34 ce9e 9635 75a2 3c35
00000330: a5ca e232 7cb8 3836 0c8d 5135 b677 ac35
00000340: 76e2 3b36 44ee a235 7904 be35 f5ae 7935
00000350: fe41 8637 3acc e134 ec74 e936 92eb ab35
00000360: 5e19 6d35 357e f433 b814 0834 f8dd 2035
00000370: 0a80 2438 356d c037 e572 f335 b882 a634
00000380: e38a 6136 0411 d734 629a 3f37 3483 b235
00000390: 8eb8 0235 8185 f236 4953 cf35 3a4d c234
000003a0: a51a 9a35 578e 3935 13d6 cc34 cf33 5a36
000003b0: 96b6 1b35 d7fe 4d35 95cd c835 e73d 5a36
000003c0: ba28 9736 06e0 5d35 84ac a234 b723 ba34
000003d0: a642 9035 b956 4036 a32a 8336 0a5e 9633
000003e0: c6cd cc35 3f77 f936 b186 9136 9b42 4836
000003f0: c42e 9734 d959 7435 e070 a634 9910 b535
3.0321414e-07 3.3276993e-07 4.0106505e-07 5.3327796e-07 9.975128e-07 3.628422e-08 2.6461856e-07 1.0456681e-07
1.4564637e-07 3.4780577e-08 8.50108e-08 7.782853e-07 1.4629486e-06 2.2021511e-07 1.4001132e-07 2.949858e-07
1.9647403e-07 5.2606442e-08 3.8431892e-07 1.504063e-08 4.180913e-07 9.902271e-07 6.2562464e-07 3.363031e-07
6.3324945e-09 1.9395168e-07 9.922713e-08 7.052434e-08 1.5691867e-08 1.1724737e-07 1.6362743e-07 5.9309706e-08
3.3539152e-08 1.304504e-07 1.0210355e-08 5.347049e-07 4.7017924e-08 2.719276e-07 1.5047996e-07 3.9131714e-07
7.211953e-08 3.6130587e-08 7.896154e-07 9.595328e-08 1.1574374e-07 1.0043414e-06 1.1748242e-07 4.4893664e-08
1.4865428e-06 1.9106693e-07 3.3895393e-08 1.786433e-07 8.950689e-08 4.0543803e-08 1.1203284e-06 1.9010356e-07
4.9529e-08 1.8334921e-07 5.280097e-07 6.4507475e-07 1.4318604e-08 3.9341938e-07 2.7629844e-07 5.220677e-08
5.1921717e-08 2.262756e-07 3.5028393e-07 8.064847e-08 8.753469e-09 1.6403229e-07 2.5996734e-08 8.4647786e-07
2.2839188e-07 3.9838117e-08 4.31284e-08 9.6788774e-08 4.805752e-09 3.6673075e-07 5.359873e-08 1.5501107e-07
6.192087e-08 1.4110107e-07 1.3898313e-07 3.2101457e-07 1.202253e-06 3.232472e-08 6.841577e-07 1.291158e-07
1.6054473e-07 4.252078e-08 3.3987167e-08 1.0796144e-07 2.7240749e-06 1.5675413e-06 1.2899085e-07 6.149111e-08
2.5735503e-07 3.46549e-08 9.908728e-07 2.4318348e-07 8.524116e-08 6.736925e-07 3.4362697e-07 1.01771136e-07
1.390184e-07 4.479683e-08 1.1614434e-08 7.3144645e-07 6.074924e-08 1.7443523e-07 6.873948e-08 8.232984e-08
2.4519278e-07 4.9856773e-08 4.3313502e-08 3.5713416e-08 1.02903556e-07 4.453231e-07 2.4823245e-07 9.2819185e-08
2.6814095e-07 7.258782e-07 2.1948635e-07 3.0292807e-07 1.3601884e-08 4.7668856e-08 1.2836097e-07 1.513038e-07
4.997734e-07 1.2026986e-06 4.821539e-06 8.853544e-07 1.086558e-05 1.4633185e-06 2.5907e-06 1.2140358e-06
1.2465358e-06 3.4680443e-07 1.1270348e-06 9.780068e-06 2.1816599e-05 3.5344628e-06 1.3669286e-06 3.366965e-06
3.8062603e-06 4.946183e-07 2.9760083e-06 9.520092e-08 5.630238e-06 8.911787e-06 7.3596398e-06 9.5155445e-07
4.7818684e-08 2.5551805e-07 2.6228682e-07 1.9421816e-06 2.4944467e-07 7.4537286e-07 2.5308523e-07 5.9168525e-07
2.3377628e-07 4.3193913e-06 1.2025991e-07 4.2455167e-06 3.458405e-07 2.673106e-06 3.8323446e-07 6.7784295e-06
1.1506127e-06 1.3491085e-07 5.648094e-06 1.6381756e-06 6.780566e-07 1.2144821e-05 1.8310656e-06 9.482269e-07
1.7316173e-05 4.7067428e-07 3.8942807e-07 9.768708e-07 1.6542208e-06 1.482842e-07 1.1876025e-05 1.9602771e-06
5.5776513e-07 1.5676335e-06 2.3947914e-06 5.342814e-06 1.1724275e-07 5.914719e-06 1.5837757e-06 1.627579e-06
5.049955e-07 9.895087e-07 3.307086e-06 1.4812184e-06 9.947685e-07 8.888607e-07 2.0346201e-07 7.059712e-06
3.7977056e-06 2.3617545e-07 1.1222089e-06 7.0271864e-07 2.6402015e-08 2.752552e-06 7.806382e-07 1.2849839e-06
2.799699e-06 1.2139285e-06 1.4157405e-06 9.3014324e-07 1.6004775e-05 4.205811e-07 6.9575526e-06 1.2809053e-06
8.8326294e-07 1.1385092e-07 1.2673524e-07 5.992765e-07 3.9219893e-05 2.2939037e-05 1.813835e-06 3.101502e-07
3.3608455e-06 4.005925e-07 1.1420432e-05 1.3300219e-06 4.8697336e-07 7.227704e-06 1.5446941e-06 3.6191506e-07
1.1481649e-06 6.9125e-07 3.815372e-07 3.2514688e-06 5.8007697e-07 7.673929e-07 1.4960993e-06 3.2520563e-06
4.504892e-06 8.265491e-07 3.0300373e-07 3.4671186e-07 1.0748233e-06 2.8660709e-06 3.909068e-06 7.002025e-08
1.5259072e-06 7.4346603e-06 4.337017e-06 2.9841092e-06 2.8159968e-07 9.102783e-07 3.1002037e-07 1.3490381e-06

exp_avg f4 [64]
00000000: 6975 9cb5 967d ca38 5e09 2738 4839 4ab8
00000010: 25cb ab3a b139 a339 4ff2 4b38 74fd e038
00000020: 1fcd 83b9 f508 1a38 9403 3436 4f95 003a
00000030: 0e29 f3b9 748f 65b6 906f 52b8 a89c 4f38
00000040: d082 9d3b b195 76b9 f55b 5639 a77e c1b8
00000050: 1702 8737 bd1c 89b8 b5a9 8ab8 c115 a6b8
00000060: a31f 11b8 9ece 5539 b1f3 2738 37d9 9838
00000070: 7787 6338 b7d0 ab38 c2e4 31b9 6924 64b8
00000080: 351d cab7 9985 87b8 8f7b 53b9 fae9 36b9
00000090: 67c7 24b8 9182 45b8 8597 b439 e8b2 5036
000000a0: 647f 0539 ae42 a638 d1b2 36b7 97bd 69ba
000000b0: 24c8 2bba 645c d336 fd99 0438 2c2b 77b8
000000c0: bc35 6cb8 7fd5 9539 ebdb 8539 332c a4b8
000000d0: 3af7 3236 ff10 9c38 3ea5 a0ba 2610 ca39
000000e0: feff 5bb8 b515 88b8 2f17 5639 c2d9 15b9
000000f0: 6f30 27bb 55a8 40b8 2221 6438 f11a 3535
-1.1657077e-06 9.655503e-05 3.9824627e-05 -4.82139e-05 0.0013106806 0.00031132766 4.862464e-05 0.00010728362
-0.00025139094 3.6724803e-05 2.6824173e-06 0.0004905061 -0.0004637916 -3.420716e-06 -5.0171802e-05 4.9498543e-05
0.004806854 -0.00023516153 0.00020442887 -9.226548e-05 1.6094227e-05 -6.538022e-05 -6.611963e-05 -7.919549e-05
-3.4600158e-05 0.00020390234 4.0042858e-05 7.288384e-05 5.424718e-05 8.1927916e-05 -0.00016965254 -5.4393346e-05
-2.4093877e-05 -6.462186e-05 -0.00020168557 -0.00017444036 -3.9286355e-05 -4.709006e-05 0.00034445166 3.1098552e-06
0.00012731325 7.927917e-05 -1.0889679e-05 -0.0008916496 -0.00065529556 6.2990457e-06 3.1614665e-05 -5.8929596e-05
-5.631683e-05 0.00028578562 0.00025531588 -7.828362e-05 2.6667972e-06 7.4418254e-05 -0.0012256277 0.00038540474
-5.245208e-05 -6.4890286e-05 0.00020417267 -0.00014290868 -0.0025511046 -4.593314e-05 5.4390293e-05 6.746696e-07

exp_avg_sq f4 [64]
00000000: 9c02 db35 7c15 b537 c195 1838 ed29 c235
00000010: 697f 993b bec3 5738 e77f 3338 f6dd 0d38
00000020: 279c 4e3a 5b46 9937 f6fe 0536 7ba5 233b
00000030: d17d 053a ead1 4237 45e1 9b37 98fb b136
00000040: 5cd4 f63b 96d5 c938 66d9 1939 fbbf 0038
00000050: 9042 2937 5eb5 1b36 b22d c137 9506 df37
00000060: bdcc 8d36 6e14 8938 cd22 ad36 720c 2a37
00000070: 1e3f bb37 ea3f dd37 a079 9638 1ff1 ab37
00000080: e1a0 3237 5290 6938 3328 8338 7d4c e938
00000090: 5299 cd36 7a42 d338 037d b039 cfda a834
000000a0: 87ef 8d38 4151 4a38 a818 3835 fa7f fc39
000000b0: 34a0 1e3a 525c 1736 66ec 0937 40fe 4d37
000000c0: 0656 9937 8994 4c39 47e6 6f39 87c8 d037
000000d0: df3a 1233 d207 0338 4b1d 763b bc99 b739
000000e0: 299e 0238 0d1f 2237 1dea d238 cbca 9538
000000f0: 332d 323c 569f cc35 ff85 2f37 a990 0230
1.6317531e-06 2.1586886e-05 3.6379093e-05 1.4466328e-06 0.004684378 5.1442294e-05 4.2796044e-05 3.3823737e-05
0.0007881545 1.8271783e-05 1.9966951e-06 0.002497046 0.00050922955 1.16121755e-05 1.858234e-05 5.3043004e-06
0.0075326394 9.62421e-05 0.00014672204 3.0696374e-05 1.0088683e-05 2.320237e-06 2.3028671e-05 2.6586737e-05
4.225962e-06 6.5364744e-05 5.159853e-06 1.0135687e-05 2.2321528e-05 2.6375015e-05 7.175212e-05 2.049707e-05
1.0647084e-05 5.5685938e-05 6.2540545e-05 0.00011124553 6.127325e-06 0.00010073646 0.00033662477 3.1451643e-07
6.7680194e-05 4.8236227e-05 6.858122e-07 0.00048160536 0.0006051094 2.255449e-06 8.220877e-06 1.2278149e-05
1.8279079e-05 0.0001951029 0.00022878601 2.488891e-05 3.4046817e-08 3.1240117e-05 0.003755408 0.0003501902
3.1141713e-05 9.663182e-06 0.00010057187 7.142647e-05 0.010875034 1.5245557e-06 1.0462011e-05 4.74993e-10

exp_avg f4 [1, 64]
00000000: 077b ad3e 8453 4b3a d750 a43e 0482 09bf
00000010: 9332 0f3f 6f14 1f3f 6954 a43e 668d c4bd
00000020: c4b5 c1be 2ca0 3cbe f28f b1be 9ee0 ba3e
00000030: ffc8 0fbf fca7 ca3e 82d4 0b3e ea6d 5b3a
00000040: 28b6 22be b345 0dbf 0f6b ea3e 2866 eabe
00000050: 9712 2b3e 54c8 12bf 92f2 bebe 1404 bdbe
00000060: 6999 eabe 6e08 34bc f847 b43e 85cb 003f
00000070: bd09 3ebe d828 d23e 7742 463d c5c8 0b3e
00000080: 43ec 5bbe 8ea5 3c3e 212d 323c 757f eabe
00000090: 94f6 f4be c493 773e b7dc 033f f1ff 373e
000000a0: 7019 1cbe 88d3 0bbe ef4d dabe f801 d2be
000000b0: 9a80 8d3d 10c1 77be 846e 48be 057a d1be
000000c0: 4125 c1be 6dcd 48bd 8fbc e93e b3e9 f4be
000000d0: 19f4 4f3e fb39 46be 71d8 f23a f7e0 1e37
000000e0: 9a0d 773e 8413 49ba 5ab6 46bd 2e81 d63d
000000f0: c46e 023e 00e3 dfbe 3dfc 51be 8919 15ba
0.33882925 0.000775628 0.32092926 -0.53714013 0.55936545 0.62140554 0.3209565 -0.09597282
-0.3783399 -0.18420476 -0.34680134 0.36499494 -0.5616607 0.39581287 0.13655284 0.00083705655
-0.158898 -0.5518448 0.45784804 -0.45781064 0.1670631 -0.57336926 -0.3729444 -0.36917174
-0.45820168 -0.010988338 0.35211158 0.50310546 -0.18558402 0.41046786 0.04840323 0.13650806
-0.21476845 0.18422529 0.010875017 -0.45800367 -0.47844374 0.24177462 0.5150866 0.17968728
-0.15244079 -0.13654912 -0.42637584 -0.41017127 0.069092944 -0.24194741 -0.19573408 -0.40913406
-0.37723735 -0.049024034 0.4565167 -0.47834548 0.2030796 -0.19358055 0.0018527639 9.469913e-06
0.24126282 -0.00076704496 -0.048513748 0.10473858 0.12737566 -0.43727875 -0.20506378 -0.0005687704

exp_avg_sq f4 [1, 64]
00000000: d7bb 9541 f380 4d42 7d5c d140 2ebc f340
00000010: cb54 d640 81b3 c040 b076 d140 d385 0242
00000020: ec1a c940 6d9f 0342 c23e 9641 9704 0141
00000030: 03a9 df40 2efb 5841 a518 2642 0bae 4d42
00000040: 21e6 c941 2221 c040 30b3 ca40 7ea1 ca40
00000050: bb13 6441 c187 c840 9715 fe40 eb9e c740
00000060: d94e cb40 3e8f 2542 4ec5 fc40 fabb c740
00000070: 1ee8 0242 18af cd40 7be6 2442 f967 2642
00000080: b315 2841 9a60 0342 3dc9 2542 03f6 ca40
00000090: 75dd c940 71b0 0142 1c72 c040 5bcf 6241
000000a0: a277 0142 231e 2642 532b c640 910e 2741
000000b0: 1243 0042 a5b5 0242 498e cb41 3dc1 d240
000000c0: 8d36 cc40 dc52 2342 19b2 c840 91fe c940
000000d0: b72c 6341 c1c0 0242 d7dd 4542 ac71 4b42
000000e0: 458f c941 a178 4d42 86a6 2442 b25b 2442
000000f0: 559f f641 6cf6 ef40 e18c ca41 fc8a 0342
18.716719 51.375927 6.54254 7.616721 6.6978507 6.021912 6.545738 32.630688
6.2845364 32.90569 18.780643 8.063621 6.9893813 13.561323 41.524067 51.419964
25.237368 6.0040445 6.3343735 6.3322134 14.254817 6.2665715 7.9401355 6.238149
6.353375 41.389885 7.899085 6.2416964 32.726677 6.4276237 41.22508 41.601536
10.505298 32.844337 41.44652 6.3425307 6.3082833 32.422306 6.0139294 14.175624
32.36683 41.52943 6.1927886 10.441056 32.0655 32.677387 25.444475 6.5860887
6.381659 40.830917 6.2717404 6.312325 14.198417 32.688236 49.46664 50.861008
25.194956 51.3678 41.16262 41.089546 30.827799 7.498831 25.318789 32.885727
