model_lstm.pth.tar (torch, 622653 bytes, 18 tensors)

embedding.weight f4 [11, 128]
-0.22864102 0.58090854 0.4510811 0.71404725 -0.70565575 -0.04701629 1.6377308 1.2096062
0.19979186 -1.2441795 -1.3907509 -0.5090066 -0.43864173 -0.9872767 -0.34082526 0.039400548
-1.1526369 -2.3645308 -0.2657342 -1.8035555 -0.13622217 -1.6282431 0.9393367 -0.3865143
0.8917009 0.34734192 -0.61097157 0.0051116226 -0.67298114 -0.16984981 -0.4212771 -0.068035096
-0.34766245 0.3112195 0.19825852 -0.68722266 0.16893074 1.725232 0.059158593 -0.61600274
-0.5593925 -0.8167271 -0.45208818 -0.83059365 -1.090822 -0.35277435 1.9326731 0.9072966
1.084101 1.8095381 1.0159802 -0.98832 -0.06419499 0.8119617 0.063329786 0.042997062
-1.0198872 -1.35914 -0.06564951 -0.7563389 1.0729499 0.10271394 -0.35261053 0.9893466
0.292572 0.30120695 -0.12661256 0.9466967 0.35141438 -0.75337493 -0.55793715 -0.27948993
-0.7445797 0.049015895 0.74110657 0.70539165 -0.8947489 -0.75691783 1.7693994 -0.11975548
0.5321548 -0.018804597 -0.11038205 -0.49474177 -1.1872985 0.79191005 -0.24406219 0.5195696
-1.5294691 0.2285363 0.18187666 -0.92441887 -0.6554108 -0.4103673 0.89919424 -0.9023435
0.5444104 1.6768516 -0.24869774 0.62854457 0.45846048 0.66774124 0.13525218 -0.13571657
1.1933945 0.26071006 1.2976815 1.2133818 1.4669458 -0.13740759 -1.9747788 0.4816613
1.7604733 -0.1458106 -0.44699892 -1.0898613 0.71302307 0.009826636 -0.36360338 0.17743188
0.14018394 -0.5202137 0.29321617 0.9631393 -1.2280139 -0.3395479 -0.49521357 1.0906643
0.8242625 0.51159126 -0.9665009 1.1665845 -0.59898126 -0.94026893 3.1744392 -0.22605518
-0.75300574 -0.88112086 0.15247527 -1.1572145 0.4697741 -0.26401645 -1.468236 -0.90303314
-0.09866749 -0.080541044 0.00021456246 0.6034514 -0.25934836 -0.09434094 0.25100318 0.410399
2.009546 -0.40101945 -0.50873643 -0.21972963 -1.8821027 1.2182688 -0.27123055 0.41128823
-0.7226063 -1.2910547 0.17378397 -0.89504373 1.8324387 -2.0550008 -0.4227949 -1.0053502
1.1405292 -0.773696 0.10565444 -0.12130716 0.16415922 -1.4171308 -0.45388076 1.0653938
-0.89136887 0.26462626 -0.67785263 -0.3123701 0.027651986 -0.05759764 0.19002801 -0.9945536
1.471235 -0.8937164 -0.8748607 1.8057036 0.3085374 -1.3247249 0.09980874 -0.58962184
-0.078074224 -1.4171352 -1.5568537 1.4083775 -0.89626706 -0.016254852 -0.50156325 -0.53714573
-0.40714857 -0.1446803 0.89567804 -0.13391776 0.41929677 -0.16753042 0.07705972 0.5232754
-1.1203179 1.0461668 0.96968323 -0.25468498 -0.967684 -1.3775722 -1.0200107 0.17314143
-0.27622208 -2.0735493 0.86933655 -1.1311003 0.113843255 -0.65868616 1.7424704 0.4491527
0.42034268 0.5949801 -0.6585173 -1.8736603 1.4787564 0.8487382 -0.34748045 -0.31496602
1.6614268 0.44966444 -0.4343476 -1.6140994 -0.22827728 -0.2921085 1.2178982 -0.91005015
-1.1450069 0.2303112 -1.1353616 -0.012790994 -0.38807142 1.3527116 0.6233041 0.34387162
1.0424924 -0.31482562 1.0887352 0.1720708 -0.4217828 -0.5892475 0.83569354 -0.8991553
00000000: df20 6abe 6cb6 143f 1af4 e63e cdcb 363f
00000010: dba5 34bf 2794 40bd 2aa1 d13f 60d4 9a3f
00000020: 3d96 4c3e 4641 9fbf 2004 b2bf 424e 02bf
00000030: a695 e0be 2abe 7cbf a680 aebe 7862 213d
00000040: 9b89 93bf 7954 17c0 500e 88be e8da e6bf
00000050: d37d 0bbe 456a d0bf 5f78 703f 34e5 c5be
00000060: 8346 643f cdd6 b13e a268 1cbf 667f a73b
00000070: 7e48 2cbf 1ced 2dbe a2b1 d7be fc55 8bbd
00000080: d000 b2be 2a58 9f3e 4804 4b3e d3ed 2fbf
00000090: 2efc 2c3e 67d4 dc3f 4850 723d 5bb2 1dbf
000000a0: 5934 0fbf 0715 51bf 1a78 e7be c9a1 54bf
000000b0: 0ea0 8bbf d79e b4be d561 f73f 9744 683f
000000c0: d2c3 8a3f f29e e73f a40b 823f 8a02 7dbf
000000d0: aa78 83bd b9dc 4f3f 0cb3 813d b01d 303d
000000e0: aa8b 82bf 4df8 adbf 4073 86bd 6d9f 41bf
000000f0: 6c56 893f b05b d23d 5e89 b4be d245 7d3f
00000100: ffcb 953e cc37 9a3e b9a6 01be b75a 723f
00000110: 96ec b33e 2edd 40bf f8d4 0ebf 4e19 8fbe
00000120: c69c 3ebf e4c4 483d 29b9 3d3f 8c94 343f
00000130: 440e 65bf 5ec5 41bf ae7b e23f 5c42 f5bd
00000140: 4c3b 083f 190c 9abc fc0f e2bd cb4e fdbe
00000150: 66f9 97bf 9eba 4a3f 70eb 79be 8302 053f
00000160: a5c5 c3bf 6b05 6a3e e03d 3a3e b7a6 6cbf
00000170: 01c9 27bf aa1b d2be 9831 663f fcff 66bf
00000180: 7b5e 0b3f 13a3 d63f 9faa 7ebe 4ce8 203f
00000190: 55bb ea3e 17f1 2a3f 8c7f 0a3e 49f9 0abe
000001a0: 27c1 983f ca7b 853e 6d1a a63f 1850 9b3f
000001b0: e1c4 bb3f 93b4 0cbe 8dc5 fcbf 4f9c f63e
000001c0: 3057 e13f 604f 15be 0bdd e4be 9380 8bbf
000001d0: ae88 363f e6ff 203c 392a babe b4b0 353e
000001e0: 618c 0f3e ba2c 05bf 6e20 963e 4c90 763f
000001f0: 8f2f 9dbf 39d9 adbe a28c fdbe e39a 8b3f
00000200: de02 533f a5f7 023f 9a6c 77bf a452 953f
00000210: d656 19bf 77b5 70bf 032a 4b40 027b 67be
00000220: fcc4 40bf 2391 61bf 7a22 1c3e 9b1f 94bf
00000230: 3b86 f03e 2a2d 87be 28ef bbbf 2e2d 67bf
00000240: 2e12 cabd b4f2 a4bd 2cfc 6039 ca7b 1a3f
00000250: 4fc9 84be d335 c1bd 7d83 803e d11f d23e
00000260: 679c 0040 6c52 cdbe 8d3c 02bf ce00 61be
00000270: bee8 f0bf 3bf0 9b3f bbde 8abe 5f94 d23e
00000280: bafc 38bf 4841 a5bf 6df4 313e 9621 65bf
00000290: 5a8d ea3f 2285 03c0 9378 d8be 51af 80bf
000002a0: dcfc 913f f110 46bf 5b61 d83d e36f f8bd
000002b0: 5b19 283e 8b64 b5bf 0f63 e8be d35e 883f
000002c0: c030 64bf 187d 873e c087 2dbf f9ee 9fbe
000002d0: 6b86 e23c 81eb 6bbd b496 423e 119b 7ebf
000002e0: 6e51 bc3f 99ca 64bf dff6 5fbf 4c21 e73f
000002f0: 9df8 9d3e 9690 a9bf 8668 cc3d 75f1 16bf
00000300: 61e5 9fbd b064 b5bf fb46 c7bf b745 b43f
00000310: c271 65bf e528 85bc 7366 00bf 6282 09bf
00000320: c775 d0be 1327 14be 284b 653f bd21 09be
00000330: 11ae d63e 188d 2bbe 7dd1 9d3d 60f5 053f
00000340: 9466 8fbf cbe8 853f 293d 783f 1266 82be
00000350: 23ba 77bf 4954 b0bf b68f 82bf fd4b 313e
00000360: fb6c 8dbe 08b5 04c0 d78c 5e3f e5c7 90bf
00000370: a726 e93d a89f 28bf 4509 df3f 58f7 e53e
00000380: 2837 d73e 9e50 183f 9794 28bf 1ad4 efbf
00000390: e447 bd3f e846 593f f5e8 b1be 3a43 a1be
000003a0: a2a9 d43f 6b3a e63e cf62 debe cf9a cebf
000003b0: 85c1 69be 3f8f 95be 17e4 9b3f 0cf9 68bf
000003c0: 968f 92bf b3d6 6b3e 8753 91bf 5191 51bc
000003d0: 4cb1 c6be a725 ad3f dc90 1f3f f10f b03e
000003e0: 6470 853f d330 a1be ad5b 8b3f 5433 303e
000003f0: eaf3 d7be edd8 16bf 03f0 553f 0b2f 66bf

lstm.weight_ih_l0 f4 [256, 128]
-0.028521102 0.05623128 0.027229847 -0.16159391 -0.049624626 -0.01577455 -0.09427196 0.014237276
0.24025641 -0.24396347 -0.25956562 0.10848179 -0.13826127 0.079449 -0.0014199335 -0.111398034
0.011878855 -0.24574274 -0.050384786 -0.22609107 0.22530405 0.03923416 -0.1787743 -0.02943812
-0.026067503 0.21432753 -0.1461165 -0.036155682 0.116066396 -0.30877826 0.25752965 -0.038959436
0.005655266 0.09226536 0.0032721027 -0.09179243 0.0531469 0.25308844 0.10965132 0.10517962
-0.05465704 -0.15711756 -0.1673914 -0.03721122 0.17220037 0.24636945 -0.012081431 -0.06479874
0.045463145 0.19753227 0.05217407 -0.07045426 -0.0067157634 -0.038758915 0.09147149 0.01868271
-0.13272338 0.13856766 0.070846915 -0.11429305 0.015927423 -0.05852467 0.05626317 0.09059744
-0.034868322 0.10703732 0.25318488 0.10379105 0.03452831 -0.06601999 -0.09094603 0.10378051
-0.10773949 -0.017455485 -0.036182232 -0.10961016 -0.08704009 0.069447 0.09531538 0.21332426
0.043875504 -0.035621446 -0.09965907 0.07023952 0.110002965 0.13952716 -0.07351877 -0.28358364
-0.10754277 0.020447403 0.1687618 -0.12192193 -0.24820967 -0.1315263 -0.06255785 -0.21778505
0.0380785 0.22382098 -0.061755568 0.087583825 0.010136771 -0.0034304797 0.17330737 -0.074783236
-0.022171048 -0.1255136 0.028432842 0.033454068 0.30034414 0.1580379 -0.07489061 0.2842375
0.13519429 0.10238499 0.029014947 -0.2725483 -0.049393374 0.01387405 -0.010353435 -0.028382234
-0.07920894 -0.030359847 0.07354775 0.11543705 -0.17888615 -0.06011643 0.12530234 0.034465827
-0.16081938 -0.10186064 0.06105754 -0.111488275 0.17583175 0.023929339 -0.23461144 -0.087954246
-0.030059742 -0.0700646 0.093146354 0.024777876 -0.04150293 -0.039119482 0.114998914 -0.10391421
0.07063413 0.11625742 -0.07568444 0.043294318 0.015459331 0.13214743 0.057277944 0.05464857
-0.092342764 -0.13848276 0.22968516 0.19167246 0.08050501 0.020523736 0.13273773 -0.058212012
-0.093814544 -0.026760887 -0.15349926 0.20266007 -0.28554115 0.096025646 0.10874326 -0.030014774
-0.12054092 0.09898076 -0.020705983 -0.016621906 0.06726909 0.110412195 -0.007609166 -0.066524014
0.054013126 -0.14753948 0.17609385 -0.03343145 -0.044228226 -0.061845306 0.161467 0.06670091
0.0067130714 0.042999145 -0.11063706 -0.12730019 -0.07625539 0.090565786 0.12054082 0.09069999
-0.14636832 0.066777624 0.0295583 -0.19146255 0.023375414 0.048854638 0.025026333 0.19765005
0.06260147 0.16166796 -0.10391266 -0.28609177 0.09021876 0.013156717 0.03472637 -0.06526234
0.17193201 -0.09603076 -0.048389245 0.06025236 0.0930614 0.017642433 0.15139021 -0.12664852
0.02863138 -0.08085202 0.057245072 -0.011629178 -0.06288968 0.045488227 -0.09739833 -0.012471981
0.10405007 -0.019668218 0.13943687 -0.05162337 -0.17939597 0.04885297 -0.20245759 0.060807925
0.062108707 0.12130793 0.0010948159 0.09472922 0.08950517 0.010013736 -0.10263232 -0.02352214
-0.027872898 0.06751051 -0.13488083 0.082077794 0.09012222 -0.08067139 -0.13480164 -0.15194929
-0.086756214 -0.01541166 -0.08600433 -0.059293266 0.18508299 0.0798446 0.2773815 -0.070437916
00000000: 16a5 e9bc c552 663d 2111 df3c e078 25be
00000010: 3143 4bbd a139 81bc a811 c1bd 7743 693c
00000020: c705 763e 8fd1 79be c9e5 84be b32b de3d
00000030: 5d94 0dbe 28b6 a23d 101d baba a724 e4bd
00000040: 879f 423c fca3 7bbe 4760 4ebd 6b84 67be
00000050: 1bb6 663e 00b4 203d 9c10 37be 3628 f1bc
00000060: 848b d5bc ad78 5b3e 909f 15be fb17 14bd
00000070: 38b4 ed3d 2f18 9ebe edda 833e ee93 1fbd
00000080: cf4f b93b 9ff5 bc3d c670 563b abfd bbbd
00000090: 90b0 593d cf94 813e df90 e03d 6a68 d73d
000000a0: 0fe0 5fbd 6de3 20be a768 2bbe cb6a 18bd
000000b0: 4b55 303e 4648 7c3e 32f1 45bc 34b5 84bd
000000c0: 9037 3a3d e645 4a3e 7ab4 553d 534a 90bd
000000d0: e80f dcbb abc1 1ebd 6855 bb3d 7c0c 993c
000000e0: a3e8 07be aee4 0d3e 3018 913d 7912 eabd
000000f0: 3a7a 823c 90b7 6fbd 3674 663d 278b b93d
00000100: 16d2 0ebd 6236 db3d 73a1 813e 6790 d43d
00000110: 8f6d 0d3d 7d35 87bd ea41 babd e08a d43d
00000120: 86a6 dcbd cefe 8ebc d233 14bd 4b7b e0bd
00000130: 1342 b2bd 3b3a 8e3d b634 c33d ad71 5a3e
00000140: cdb6 333d cbe7 11bd 0e1a ccbd bdd9 8f3d
00000150: 3c49 e13d 35e0 0e3e 0291 96bd e031 91be
00000160: 623f dcbd 5081 a73c e5cf 2c3e 34b2 f9bd
00000170: ad2a 7ebe d5ae 06be 541e 80bd 0b03 5fbe
00000180: 34f8 1b3d 5431 653e 68f3 7cbd 265f b33d
00000190: b314 263c e6d1 60bb 7d77 313e f427 99bd
000001a0: 0fa0 b5bc a386 00be feeb e83c 2207 093d
000001b0: b5c6 993e b0d4 213e 4060 99bd 9487 913e
000001c0: 5f70 0a3e 39af d13d c1b0 ed3c 738b 8bbe
000001d0: b550 4abd fc4f 633c 74a1 29bc dc81 e8bc
000001e0: 4c38 a2bd 37b5 f8bc 34a0 963d 436a ec3d
000001f0: ee2d 37be a53c 76bd 424f 003e 0a2c 0d3d
00000200: d6ad 24be 509c d0bd 7917 7a3d f753 e4bd
00000210: 3d0d 343e 7607 c43c fb3d 70be 5b21 b4bd
00000220: d93f f6bc 077e 8fbd 84c3 be3d f9fa ca3c
00000230: fafe 29bd c03b 20bd 8d84 eb3d f9d0 d4bd
00000240: a0a8 903d 5f18 ee3d 7200 9bbd 6255 313d
00000250: 2249 7d3c a851 073e 479c 6a3d 2ed7 5f3d
00000260: 341e bdbd 6dce 0dbe 9632 6b3e c945 443e
00000270: d0df a43d 6521 a83c 66ec 073e b86f 6ebd
00000280: d721 c0bd a639 dbbc e92e 1dbe 1f86 4f3e
00000290: 7332 92be 18a9 c43d c9b4 de3d 8be1 f5bc
000002a0: 28de f6bd 6db6 ca3d 989f a9bc aa2a 88bc
000002b0: 60c4 893d ca1f e23d 5056 f9bb be3d 88bd
000002c0: de3c 5d3d 9714 17be f251 343e 6bef 08bd
000002d0: a828 35bd 8151 7dbd 9b57 253e 7d9a 883d
000002e0: 53f9 db3b df1f 303d af95 e2bd fb5a 02be
000002f0: c92b 9cbd 8e7a b93d 1bde f63d ebc0 b93d
00000300: 94e1 15be b5c2 883d 3f24 f23c c20e 44be
00000310: cc7d bf3c cd1b 483d 0604 cd3c c664 4a3e
00000320: 3335 803d 498c 253e 29d0 d4bd 9f7a 92be
00000330: 9dc4 b83d 458f 573c 3d3d 0e3d 43a8 85bd
00000340: f20e 303e c6ab c4bd cd33 46bd 2ecb 763d
00000350: fa96 be3d dd86 903c 0906 1b3e 26b0 01be
00000360: 5b8c ea3c be95 a5bd cf79 6a3d 4f88 3ebc
00000370: 4ecc 80bd dd51 3a3d c778 c7bd 4857 4cbc
00000380: 3418 d53d 3e1f a1bc 8ac8 0e3e 0773 53bd
00000390: 94b3 37be 0d1a 483d 0b51 4fbe bb11 793d
000003a0: b365 7e3d 4b70 f83d ed7f 8f3a 6501 c23d
000003b0: 7d4e b73d a710 243c e530 d2bd 81b1 c0bc
000003c0: b455 e4bc f342 8a3d 331e 0abe 6718 a83d
000003d0: 0092 b83d 0b37 a5bd 7109 0abe 9898 1bbe
000003e0: 3ead b1bd 3081 7cbc 0a23 b0bd 7fdd 72bd
000003f0: 6586 3d3e 9185 a33d f304 8e3e c141 90bd

lstm.weight_hh_l0 f4 [256, 64]
-0.32903028 0.24580456 0.16689973 0.18892024 -0.37231946 0.25609416 -0.25029382 0.042279776
0.08131237 -0.011170434 -0.255665 -0.33010244 -0.23212823 0.34959012 -0.056801148 0.32095814
0.031116318 -0.14278659 -0.29361752 -0.010836522 -0.38201877 0.3763374 0.13974246 -0.11031951
0.024973461 0.12712535 -0.20861606 0.34786594 0.420428 0.29173684 0.1066046 0.2103958
0.49927294 0.051567454 0.015158344 0.29941544 -0.08943566 0.30070397 0.36936852 0.28004456
0.024748264 0.048558813 0.14083265 -0.045197673 -0.46059656 -0.061316937 -0.3591351 -0.17498817
0.08689729 0.10864034 -0.42288893 0.3990171 -0.023406256 0.4380863 -0.05144 -0.096772045
0.15844382 -0.027662287 -0.02103395 -0.10874063 -0.054445423 -0.26826352 0.077929795 0.5122195
-0.13657954 -0.073842645 -0.08667733 0.14941695 -0.2249453 -0.19484708 -0.22869106 0.0713733
0.09690257 -0.4946244 0.008804167 -0.096381254 -0.0153848715 -0.12343215 -0.088397264 0.007642029
-0.2252505 0.1806223 -0.0043491144 0.06119769 0.03498799 0.016269304 -0.057325132 -0.045129582
-0.095435895 0.1556019 -0.15781039 0.38920552 0.0038625805 -0.112069175 -0.25779346 0.33025348
-0.034872826 0.1562898 0.20001732 0.21957356 0.04405138 -0.11357041 0.0885382 -0.18042359
0.05464981 0.276959 -0.057421852 0.18780696 0.082227185 0.040816277 -0.14098626 0.08235
0.2761891 -0.044778503 0.14336741 0.063949525 0.113391966 -0.10835914 -0.5953763 0.3011575
0.03750401 0.008708536 -0.24732834 -0.14036074 -0.040703844 -0.03936268 0.22344999 0.07222963
0.03951317 0.23531283 0.09892161 0.08265223 0.041817863 0.086820655 0.20738772 -0.09606628
0.072763816 -0.1251375 -0.07163792 0.293534 -0.29279202 -0.006080065 0.10040222 -0.012196543
0.020172665 -0.38980964 0.26119858 0.0855699 -0.14487797 0.18998852 0.2561778 0.15762164
-0.084463246 0.05407326 -0.042827412 -0.11668778 0.023191659 0.16637278 -0.4262184 0.1528232
-0.078917 0.53631324 -0.03782392 -0.10504297 -0.9318902 0.22997679 0.04349501 -0.15320663
0.08427164 0.25667623 -0.1874019 -0.3588011 -0.054346766 -0.0048377244 0.050303694 0.186695
0.022073096 -0.3641494 -0.3274702 0.07295806 -0.18683638 -0.13180214 -0.01315831 -0.13946481
-0.05609605 -0.17745441 0.047252487 0.24607807 0.036922686 -0.14047171 -0.04739088 -0.09094408
-0.06418936 0.42959553 0.3178372 -0.25598854 -0.6553974 0.2372497 -0.23164882 0.36758697
0.06256289 -0.045680135 -0.39584988 -0.35470226 -0.46983856 0.5497373 -0.11164062 0.5545084
0.0938171 -0.08495122 -0.26015535 0.114261776 -0.35426545 0.29268277 0.118167 -0.09314129
-0.091553025 -0.031433355 0.1136092 0.28783843 0.433466 0.18225071 0.049522355 0.06889968
0.37609154 -0.045004416 0.11242941 0.43445632 -0.5818973 0.2529108 -0.20582932 0.37804374
0.29459813 -0.16211952 0.37341624 -0.19443949 -0.49460775 -0.40913585 -0.20027111 -0.35160583
-0.054493368 -0.55414873 -0.1622732 0.3702884 0.0065900288 0.4951535 -0.26009497 0.2098999
0.24954581 0.18188654 -0.11579728 -0.18533505 0.16900834 -0.20686975 -0.30294776 0.36049563
00000000: a876 a8be 31b4 7b3e c3e7 2a3e 4f74 413e
00000010: a8a0 bebe c61e 833e 8326 80be 8f2d 2d3d
00000020: 1a87 a63d 3204 37bc 86e6 82be 3003 a9be
00000030: 06b3 6dbe 7afd b23e 52a8 68bd a054 a43e
00000040: a6e7 fe3c a636 12be 0955 96be ab8b 31bc
00000050: f797 c3be 4caf c03e a618 0f3e 32ef e1bd
00000060: 2595 cc3c 262d 023e 739f 55be 7c1b b23e
00000070: 5742 d73e 885e 953e 8353 da3d ff71 573e
00000080: b4a0 ff3e 6538 533d b45a 783c fb4c 993e
00000090: 0b2a b7bd dff5 993e df1d bd3e 0062 8f3e
000000a0: dfbc ca3c 9be5 463d 6f36 103e 3221 39bd
000000b0: 50d3 ebbe 7827 7bbd 8ee0 b7be 1930 33be
000000c0: 35f7 b13d d47e de3d e684 d8be f84b cc3e
000000d0: 7abe bfbc d94c e03e c0b2 52bd 6c30 c6bd
000000e0: 193f 223e 059c e2bc 644f acbc 68b3 debd
000000f0: 2a02 5fbd d659 89be a899 9f3d d120 033f
00000100: 82db 0bbe d03a 97bd e283 b1bd c200 193e
00000110: 1058 66be fe85 47be fd2d 6abe 2a2c 923d
00000120: db74 c63d 693f fdbe 5a3f 103c 8963 c5bd
00000130: d410 7cbc ffc9 fcbd a009 b5bd fc69 fa3b
00000140: 11a8 66be 0df5 383e 0483 8ebb 6eaa 7a3d
00000150: 914f 0f3d 3447 853c c2cd 6abd ccd9 38bd
00000160: e573 c3bd 1b56 1f3e 0c99 21be f245 c73e
00000170: 5923 7d3b 8684 e5bd 81fd 83be fc16 a93e
00000180: cfd6 0ebd 6f0a 203e 57d1 4c3e e4d7 603e
00000190: 386f 343d 9a97 e8bd 8453 b53d f6c0 38be
000001a0: 7bd8 5f3d 92cd 8d3e 2d33 6bbd 7850 403e
000001b0: ba66 a83d f82e 273d b45e 10be 1ea7 a83d
000001c0: a868 8d3e aa69 37bd e8ce 123e f8f7 823d
000001d0: 0c3a e83d 66eb ddbd 956a 18bf 5131 9a3e
000001e0: ce9d 193d 3fae 0e3c a443 7dbe baba 0fbe
000001f0: 13b9 26bd c33a 21bd 13d0 643e 21ed 933d
00000200: 90d8 213d d9f5 703e 6a97 ca3d 9345 a93d
00000210: 3549 2b3d 07cf b13d 725d 543e 66be c4bd
00000220: 3205 953d 0b24 00be e7b6 92bd 174a 963e
00000230: d6e8 95be 483b c7bb ae9f cd3d 02d4 47bc
00000240: 2541 a53c 2195 c7be d2bb 853e 463f af3d
00000250: e45a 14be 5a8c 423e bd29 833e 9167 213e
00000260: 11fb acbd ec7b 5d3d cc6b 2fbd 01fa eebd
00000270: 6ffc bd3c a05d 2a3e 4c39 dabe af7d 1c3e
00000280: 3c9f a1bd d34b 093f 41ed 1abd c520 d7bd
00000290: 5b90 6ebf 097f 6b3e d327 323d 33e2 1cbe
000002a0: 9c96 ac3d 116b 833e 49e6 3fbe c7b4 b7be
000002b0: b79a 5ebd c685 9ebb 3f0b 4e3d f92c 3f3e
000002c0: a3d2 b43c ca71 babe 2daa a7be 096b 953d
000002d0: 0952 3fbe 24f7 06be f495 57bc ddcf 0ebe
000002e0: f9c4 65bd 9cb6 35be d38b 413d e4fb 7b3e
000002f0: 3e3c 173d d1d7 0fbe f01c 42bd e440 babd
00000300: b675 83bd f2f3 db3e 8fbb a23e ee10 83be
00000310: 20c8 27bf 96f1 723e 5935 6dbe 5c34 bc3e
00000320: f920 803d 181b 3bbd d6ac cabe 899b b5be
00000330: ae8e f0be 95bb 0c3f d6a3 e4bd 43f4 0d3f
00000340: 2e23 c03d e8fa adbd 1533 85be 1402 ea3d
00000350: 4862 b5be 84da 953e 8a01 f23d dcc0 bebd
00000360: 2780 bbbd 43c0 00bd f1ab e83d 8f5f 933e
00000370: 41ef dd3e ee9f 3a3e f4d7 4a3d 471b 8d3d
00000380: 128f c03e 8d56 38bd 6441 e63d 0f71 de3e
00000390: 39f7 14bf 867d 813e ecc4 52be f38e c13e
000003a0: 91d5 963e a902 26be 6a30 bf3e 251b 47be
000003b0: 3a3d fdbe 417a d1be df13 4dbe ae05 b4be
000003c0: 7034 5fbd b1dc 0dbf f22a 26be 7196 bd3e
000003d0: 2bf1 d73b c284 fd3e 2b2b 85be 00f0 563e
000003e0: f088 7f3e 7740 3a3e 2027 edbd 79c8 3dbe
000003f0: 8610 2d3e aad5 53be f81b 9bbe e292 b83e

lstm.bias_ih_l0 f4 [256]
0.09373236 -0.19639073 0.019244751 -0.00841515 -0.115676045 -0.0661018 -0.039777562 -0.058050632
0.019957183 -0.040191565 -0.120720826 -0.19827299 -0.18206283 0.17431188 0.1451748 -0.07392635
-0.315429 0.030444523 -0.096685074 0.39404562 -0.16472335 -0.19027548 0.043131355 0.08618851
0.14300746 0.20094034 -0.053042915 -0.29208413 -0.08648525 -0.102329224 -0.2148733 -0.216929
-0.21742032 -0.258634 -0.04821152 -0.13369456 -0.27581736 0.06204897 0.05223153 -0.008546359
-0.041138697 -0.14646427 -0.026489012 0.027131261 -0.15781756 -0.17829944 0.006105453 -0.013137145
-0.1362812 -0.20377785 0.015961384 -0.1291412 0.22696738 0.01950947 0.06948142 -0.11576025
-0.020793555 -0.045293458 -0.07022361 -0.16363037 0.08387544 0.041169688 -0.13764554 -0.12438482
0.098459736 0.051278934 0.18332103 0.12662973 0.12158633 0.1309488 0.2577116 0.03700901
0.16986251 0.28773966 0.10705592 -0.09255239 0.101808555 0.09034471 -0.0048035085 0.20998481
-0.048821133 0.12740977 -0.02382199 0.08294438 0.22744174 -0.012466064 0.07999576 0.04045898
0.19455984 0.124650456 0.07694744 -0.07366592 0.29039624 -0.010462779 -0.016113702 0.16607705
0.032923184 -0.15679143 0.23633035 0.137778 0.069216646 0.08931079 0.16062637 0.08981937
0.28852183 -0.07032799 -0.053198323 0.23192355 0.2019174 -0.0029471773 -0.017748957 -0.006482859
0.11574439 -0.054453064 0.2600932 0.19683395 0.21663938 0.21979584 0.14378875 0.19340615
0.12234322 0.0066104466 0.11345744 0.15234393 0.10637951 0.05657493 -0.069156185 0.028474875
0.32991856 0.1984128 0.14395946 -0.10204387 -0.15111488 0.29893282 -0.19187227 0.22327903
0.0140125 0.043330926 -0.15957887 -0.03419679 -0.15555908 0.19917013 0.37114298 0.20900257
0.060737632 -0.15337308 0.08819089 -0.31003737 -0.06427907 0.08322054 0.21677487 0.2949796
0.35011235 -0.29514372 -0.10918541 -0.058642793 0.18988456 0.08223506 0.17840584 0.07336202
-0.05055876 -0.25253382 0.023043085 0.17607592 -0.040240515 0.23096691 -0.24051775 0.114087254
0.18285239 -0.09412642 0.09861122 -0.2835769 -0.1753981 -0.0964802 -0.062766016 -0.10709015
0.07375408 -0.052495778 -0.1268962 0.100654766 -0.3347342 0.059367187 -0.059058506 -0.07632941
0.037659016 -0.035431918 0.029351495 0.0726731 0.13246161 -0.08165236 -0.11562158 0.14555179
0.3152827 0.0026500658 0.23982424 0.4160785 0.02865937 0.20108159 0.1538873 0.13662356
0.23815684 0.43981633 0.20179923 0.00647984 0.058943942 0.05013113 0.314034 0.023475658
0.19279498 0.20036383 0.2788461 0.41472682 -0.049236853 0.20014197 0.22559555 0.09817265
0.42537978 0.3202469 0.32890195 0.06000138 0.11690339 0.22343488 0.20717554 -0.035622966
-0.041403297 -0.14203177 0.28782943 -0.07926191 -0.032865945 0.09522672 0.25058046 -0.048042335
-0.009949515 0.22475213 0.13939212 0.16404805 0.17976396 0.061201155 0.29867733 0.024750022
0.2673327 0.005119224 0.13717279 0.28419203 0.25762558 0.1495108 0.43415245 0.13254657
-0.02682345 0.00725363 0.31744263 0.14238484 0.07163617 0.3429755 0.2409834 -0.022833327
00000000: c0f6 bf3d a71a 49be 2ba7 9d3c b3df 09bc
00000010: 90e7 ecbd 6160 87bd cced 22bd 80c6 6dbd
00000020: 3f7d a33c e99f 24bd 7b3c f7bd 1308 4bbe
00000030: ae6e 3abe d07e 323e b4a8 143e b366 97bd
00000040: e97f a1be cb66 f93c d302 c6bd 59c0 c93e
00000050: 3dad 28be 93d7 42be 81aa 303d 9a83 b03d
00000060: 8c70 123e 4ec3 4d3e 8743 59bd 0d8c 95be
00000070: 2e1f b1bd fc91 d1bd bf07 5cbe a322 5ebe
00000080: 6fa3 5ebe ad6b 84be 7179 45bd 3ae7 08be
00000090: ef37 8dbe 1027 7e3d bbf0 553d 0706 0cbc
000000a0: 0d81 28bd bbfa 15be 7cff d8bc 6142 de3c
000000b0: ed9a 21be 2194 36be 4010 c83b 2e3d 57bc
000000c0: 4d8d 0bbe 24ab 50be 73c1 823c 973d 04be
000000d0: 236a 683e 53d2 9f3c 464c 8e3d b613 edbd
000000e0: 3f57 aabc a285 39bd 65d1 8fbd b88e 27be
000000f0: e3c6 ab3d 8ca1 283d f4f2 0cbe 78bd febd
00000100: 42a5 c93d dc09 523d 82b8 3b3e 39ab 013e
00000110: 4102 f93d 7117 063e c6f2 833e c296 173d
00000120: 70f0 2d3e 9d52 933e 2240 db3d 1c8c bdbd
00000130: 0181 d03d a606 b93d c066 9dbb 4206 573e
00000140: abf8 47bd b577 023e 5526 c3bc bede a93d
00000150: 7de6 683e 763e 4cbc d1d4 a33d 51b8 253d
00000160: b23a 473e bd48 ff3d 9f96 9d3d 28de 96bd
00000170: d1ae 943e 136c 2bbc e200 84bc 1a10 2a3e
00000180: 76da 063d ef8d 20be 9500 723e ad15 0d3e
00000190: 75c1 8d3d 93e8 b63d 3d7b 243e 38f3 b73d
000001a0: 22b9 933e 1f08 90bd 7ce6 59bd 5e7d 6d3e
000001b0: 6fc3 4e3e 6e25 41bb 4366 91bc 2a6e d4bb
000001c0: 650b ed3d 2d0a 5fbd f02a 853e d78e 493e
000001d0: b7d6 5d3e 2912 613e 5c3d 133e 430c 463e
000001e0: 158f fa3d 729c d83b 605c e83d 0c00 1c3e
000001f0: 80dd d93d 1dbb 673d c2a1 8dbd 2444 e93c
00000200: 16eb a83e ba2c 4b3e 1c6a 133e 60fc d0bd
00000210: dcbd 1abe b90d 993e 2a7a 44be 42a3 643e
00000220: af94 653c c57b 313d a568 23be ef11 0cbd
00000230: e14a 1fbe 41f3 4b3e 7406 be3e c504 563e
00000240: 06c8 783d d50d 1dbe 6d9d b43d 38bd 9ebe
00000250: bfa4 83bd 886f aa3d 3bfa 5d3e 9107 973e
00000260: ed41 b33e 141d 97be 9a9c dfbd 6d33 70bd
00000270: 1971 423e db6a a83d 05b0 363e d43e 963d
00000280: b416 4fbd 1d4c 81be dac4 bc3c 3f4d 343e
00000290: 3dd3 24bd 9782 6c3e 494a 76be 94a6 e93d
000002a0: a83d 3b3e 5ac5 c0bd aef4 c93d fe30 91be
000002b0: 8f9b 33be 6997 c5bd 788b 80bd 1552 dbbd
000002c0: 610c 973d d005 57bd 14f1 01be 1624 ce3d
000002d0: 4862 abbe 022b 733d 55e7 71bd 9852 9cbd
000002e0: 5740 1a3d 0f21 11bd 8c72 f03c a2d5 943d
000002f0: 04a4 073e 5a39 a7bd 02cb ecbd 870b 153e
00000300: bc6c a13e baac 2d3b 7c94 753e 3e08 d53e
00000310: 0ec7 ea3c 55e8 4d3e a294 1d3e 0ce7 0b3e
00000320: 63df 733e 9b2f e13e 75a4 4e3e d654 d43b
00000330: 346f 713d 4d56 4d3d 10c9 a03e 0650 c03c
00000340: 0c6c 453e 2d2c 4d3e ebc4 8e3e 1357 d43e
00000350: 95ac 49bd 04f2 4c3e 8502 673e be0e c93d
00000360: 61cb d93e 67f7 a33e d665 a83e 02c4 753d
00000370: 0b6b ef3d 1dcc 643e d325 543e 63e9 11bd
00000380: 8196 29bd c770 11be 615e 933e 1154 a2bd
00000390: 719e 06bd 3a06 c33d 154c 803e 0ac8 44bd
000003a0: 4a03 23bc 6c25 663e cfbc 0e3e 36fc 273e
000003b0: 0b14 383e 10ae 7a3d 3cec 983e 8fc0 ca3c
000003c0: d5df 883e 2abf a73b 0677 0c3e 9e81 913e
000003d0: 80e7 833e 5c19 193e 3b49 de3e 4aba 073e
000003e0: dabc dbbc dcaf ed3b d787 a23e 55cd 113e
000003f0: fcb5 923d 7c9a af3e 5ac4 763e f50c bbbc

lstm.bias_hh_l0 f4 [256]
-0.030417658 -0.06535894 -0.028388465 -0.06788394 -0.016829211 0.007902533 -0.17672852 -0.21317367
0.0069538546 -0.14364398 -0.005365232 -0.24226479 -0.15636402 0.20781031 0.20091003 -0.14531541
-0.16375382 0.10479265 -0.16705349 0.2899758 -0.053360354 -0.010901718 0.013290098 0.03863792
-0.038479157 0.063006446 0.056124795 -0.26331177 -0.12209535 -0.013036736 -0.25435328 -0.32637882
-0.2579098 -0.42173514 0.041948643 -0.050199304 -0.19135372 0.075855665 -0.10216296 -0.14123482
0.05110563 -0.24332012 -0.07932146 0.098549865 -0.01027771 -0.14790489 -0.064209774 -0.0351228
-0.026511388 -0.18682963 -0.04261148 -0.099337876 0.15632713 -0.09384553 0.011620124 -0.2077453
-0.046576396 -0.12069613 0.10867234 -0.09364087 0.0056049703 -0.0425329 -0.0013164473 -0.003550835
0.1567445 0.013518891 0.18241683 0.056273267 -0.0057656146 0.19493636 0.2570945 0.13017908
0.24457592 0.2651166 0.21131818 0.027603481 0.1621605 0.108147755 0.06287229 0.23753813
0.13130185 0.15516846 -0.0396007 -0.075332 0.06345499 0.14952585 0.09989584 0.15812425
0.22604999 0.11572477 0.12552391 -0.1917559 0.28821257 0.18872392 0.090791024 0.22085351
-0.12234189 1.7476363e-05 0.099398494 0.21139239 -0.1553488 0.20536111 0.0127679305 0.055505402
0.08190946 -0.041998874 0.025692962 0.07655095 0.27453607 0.111028194 0.060958225 -0.03171921
0.1836132 0.07990802 0.26440287 0.23830114 0.18772705 0.20045255 0.20125017 0.054101963
0.1447692 0.02518633 0.10242896 0.17794308 0.1389739 0.074764974 -0.026754104 0.23554459
0.22704837 0.06291336 0.13282713 -0.058013856 -0.1307745 0.22514331 -0.052359354 0.23275258
-0.095123135 -0.115523025 -0.12843478 -0.08820555 -0.08088172 0.23322436 0.21669622 0.14627026
-0.12742037 -0.011832363 0.07363971 -0.324665 -0.1953607 0.032402217 0.047059145 0.31886598
0.353484 -0.14680961 -0.13698588 0.14973637 0.22347634 0.112285756 0.03413726 0.10217649
0.06669437 -0.06668228 0.110054955 0.1422395 -0.036600474 0.115675114 -0.23765568 0.17656028
0.16914871 -0.039753627 0.08106044 -0.22035557 -0.05180474 -0.13976234 -0.040713638 -0.10224924
-0.10741832 -0.11603705 -0.090462215 -0.0030110404 -0.1136403 0.2722645 -0.06688573 0.090618834
0.011738264 0.07110067 0.03690889 -0.1122061 0.15863013 -0.04670204 -0.21105531 0.030642759
0.27413648 -0.027503865 0.11811167 0.4024995 -0.003799998 0.1271905 0.03844528 0.11799196
0.30251914 0.30399337 0.19976549 0.096971296 0.17574689 -0.07744461 0.34675056 0.02330957
0.23574272 0.07847484 0.2293812 0.48693666 -0.04626214 0.32034296 0.22334166 0.2707266
0.24240747 0.36358175 0.41070437 -0.11056868 0.08772888 0.016826062 0.10067513 0.02786355
0.023427019 -0.17692153 0.43988633 -0.081211306 0.042829003 0.24083374 0.42586526 -0.050227508
0.18709527 0.18534648 0.1804808 0.22166088 0.13524197 0.27490205 0.29038143 -0.032539263
0.29295382 -0.02148568 0.094199255 0.1777152 0.25124046 0.16250262 0.35454747 -0.04594883
0.06928003 0.114539 0.36147222 0.30210766 0.12171695 0.19322698 0.32689083 -0.052589156
00000000: 742e f9bc e8da 85bd ed8e e8bc bc06 8bbd
00000010: 6add 89bc a079 013c 52f8 34be 334a 5abe
00000020: 29dd e33b 6817 13be d4ce afbb 4314 78be
00000030: e41d 20be 3acc 543e 5cbb 4d3e 90cd 14be
00000040: 15af 27be 879d d63d 1210 2bbe b577 943e
00000050: 6390 5abd 1f9d 32bc b6be 593c cc42 1e3d
00000060: 529c 1dbd 8609 813d 1de3 653d cdd0 86be
00000070: 200d fabd 0998 55bc 983a 82be 201b a7be
00000080: c10c 84be abed d7be 57d2 2b3d c99d 4dbd
00000090: 3bf2 43be 375a 9b3d d03a d1bd dc9f 10be
000000a0: 2354 513d e928 79be 4a73 a2bd 83d4 c93d
000000b0: d763 28bc 6174 17be 6a80 83bd eddc 0fbd
000000c0: 692e d9bc 4450 3fbe 6089 2ebd a871 cbbd
000000d0: 3814 203e 1632 c0bd 5562 3e3c 2fbb 54be
000000e0: e4c6 3ebd 882f f7bd 9b8f de3d c9c6 bfbd
000000f0: e6a9 b73b fa36 2ebd a48c acba 20b5 68bb
00000100: a181 203e 577e 5d3c 7acb 3a3e cc7e 663d
00000110: 7bed bcbb 669d 473e e4a1 833e aa4d 053e
00000120: 1c72 7a3e 5dbd 873e cb63 583e b220 e23c
00000130: 670d 263e 927c dd3d 30c3 803d 323d 733e
00000140: fe73 063e 7be4 1e3e 5834 22bd aa47 9abd
00000150: b1f4 813d 4e1d 193e 3196 cc3d 53eb 213e
00000160: a679 673e 1c01 ed3d 5789 003e a95b 44be
00000170: 9990 933e d840 413e a5f0 b93d 6c27 623e
00000180: 638e fabd 349a 9237 7091 cb3d 3f77 583e
00000190: c113 1fbe 2f4a 523e 9530 513c a259 633d
000001a0: 26c0 a73d 0307 2cbd 0c7a d23c bfc6 9c3d
000001b0: fe8f 8c3e c062 e33d 55af 793d 01ec 01bd
000001c0: 1905 3c3e d1a6 a33d d05f 873e 3705 743e
000001d0: 853b 403e 6f43 4d3e 8614 4e3e 059a 5d3d
000001e0: 613e 143e 9053 ce3c 46c6 d13d b636 363e
000001f0: 2d4f 0e3e 611e 993d 6c2b dbbc 9a32 713e
00000200: 5e7f 683e b8d8 803d d603 083e f09f 6dbd
00000210: c0e9 05be f88b 663e c376 56bd b156 6e3e
00000220: ebcf c2bd 5697 ecbd 6884 03be 1da5 b4bd
00000230: 51a5 a5bd 5ed2 6e3e 9de5 5d3e dfc7 153e
00000240: 7c7a 02be 87dc 41bc 6bd0 963d 7e3a a6be
00000250: a30c 48be 30b8 043d 17c1 403d 6742 a33e
00000260: dbfb b43e 4255 16be 0746 0cbe 7e54 193e
00000270: fbd6 643e 13f6 e53d 83d3 0b3d e841 d13d
00000280: 0f97 883d b890 88bd 7e64 e13d 3ba7 113e
00000290: 61ea 15bd 13e7 ec3d 035c 73be 38cc 343e
000002a0: 5235 2d3e b3d4 22bd 0403 a63d e4a4 61be
000002b0: 3531 54bd dc1d 0fbe 58c3 26bd 0d68 d1bd
000002c0: 23fe dbbd d5a4 edbd 4144 b9bd e054 45bb
000002d0: 3fbc e8bd 4166 8b3e 63fb 88bd 5e96 b93d
000002e0: d951 403c 3a9d 913d c72d 173d 50cc e5bd
000002f0: f06f 223e a34a 3fbd e21e 58be 8606 fb3c
00000300: 9e5b 8c3e c94f e1bc 88e4 f13d 6a14 ce3e
00000310: 6309 79bb 3a3e 023e cc78 1d3d c5a5 f13d
00000320: cae3 9a3e 05a5 9b3e 538f 4c3e e398 c63d
00000330: fef6 333e 489b 9ebd 4a89 b13e b6f3 be3c
00000340: 8a66 713e 6bb7 a03d e8e2 6a3e c34f f93e
00000350: 5f7d 3dbd fe03 a43e adb3 643e ad9c 8a3e
00000360: aa39 783e 6327 ba3e d847 d23e d571 e2bd
00000370: 33ab b33d cfd6 893c c32e ce3d 1a42 e43c
00000380: 05ea bf3c eb2a 35be c838 e13e 1d52 a6bd
00000390: 776d 2f3d 1f9d 763e 030b da3e 5cbb 4dbd
000003a0: e795 3f3e 78cb 3d3e f5cf 383e 12fb 623e
000003b0: df7c 0a3e f6bf 8c3e e0ac 943e e447 05bd
000003c0: 0bfe 953e bd02 b0bc 8aeb c03d f9fa 353e
000003d0: 97a2 803e 1667 263e 3f87 b53e d734 3cbd
000003e0: b0e2 8d3d 6c93 ea3d e312 b93e dbad 9a3e
000003f0: bc46 f93d 4bdd 453e 3c5e a73e ba67 57bd

fc.weight f4 [1, 64]
1.0996507 1.5879539 1.0593479 -1.0877718 -1.3390568 1.0911114 -1.1908118 1.4969605
1.2242748 -1.1247022 -1.1649132 -1.3827341 -1.0641303 1.064419 1.0526667 1.0720824
1.6155672 -1.0524147 -1.2791712 -1.0820129 -1.0929879 1.2650282 1.046697 1.0538424
1.1005641 -1.0414658 -1.2052556 2.6549613 1.1311891 1.2375998 -1.8403436 1.7731249
2.3128846 2.4358828 1.2118891 1.3929105 -2.3587544 1.0817238 -1.0448457 1.0370795
1.2020196 1.8549124 1.2797433 -1.0350362 -1.1167492 -1.1825137 -1.1797122 -1.1698707
1.2270674 -1.6735269 -1.1044731 1.1439332 -1.1190101 1.1741837 -1.0886748 1.3065695
1.1682236 1.1565149 -1.2995518 -1.2304938 1.1393411 -1.1904168 -1.0990152 1.1596687
00000000: 5bc1 8c3f 1342 cb3f b698 873f 1b3c 8bbf
00000010: 3766 abbf 8aa9 8b3f 856c 98bf 679c bf3f
00000020: 09b5 9c3f 3ef6 8fbf e01b 95bf 6efd b0bf
00000030: 6c35 88bf e23e 883f c8bd 863f ff39 893f
00000040: e8ca ce3f 86b5 86bf e2bb a3bf 667f 8abf
00000050: 07e7 8bbf 72ec a13f 2bfa 853f 4fe4 863f
00000060: 49df 8c3f c04e 85bf d145 9abf e3ea 2940
00000070: ceca 903f ac69 9e3f 6190 ebbf c2f5 e23f
00000080: 4d06 1440 81e5 1b40 2f1f 9b3f e44a b23f
00000090: d5f5 16c0 ed75 8a3f 81bd 85bf 05bf 843f
000000a0: c7db 993f c56d ed3f a1ce a33f 117c 84bf
000000b0: a3f1 8ebf 9c5c 97bf cf00 97bf 53be 95bf
000000c0: 8b10 9d3f 2136 d6bf 605f 8dbf 676c 923f
000000d0: b93b 8fbf a74b 963f b259 8bbf ab3d a73f
000000e0: 5a88 953f ae08 943f b757 a6bf d280 9dbf
000000f0: eed5 913f 945f 98bf 88ac 8cbf 0670 943f

exp_avg f4 [11, 128]
-0.00053622696 -0.0011995159 0.00081204803 0.003041463 0.0010547815 0.0008884481 -0.0016517733 -0.00028664724
-0.0030742271 0.0018305611 0.0012429443 0.00043730545 0.0039729616 -0.0009066168 0.0014064413 0.00243894
0.0020613216 0.0006172289 0.0020890099 0.0019174931 -0.003975578 -0.0009935617 0.00052865583 0.0009813508
0.0007177446 -0.004535623 0.0010822925 -0.0011574272 0.0014655461 0.0034387554 -0.0015790869 0.00033316875
0.0009193324 0.001314485 -0.00023171246 0.0034574538 0.0004317677 -0.0012915446 -0.0023354369 -0.00028220858
-0.0005869189 0.0012641172 0.00014589124 0.003591196 -0.00044073857 -0.0032411749 -0.0004810222 0.0021374167
-0.0007985349 -0.0021651075 -0.0009825978 0.0020956327 0.002082826 -0.0015756142 -0.00040034685 0.00042591838
0.0027902457 -0.0014279825 -0.0024856338 0.0009306417 -5.4221517e-05 0.00068966165 -0.0014616434 0.0009922999
0.00046374957 -0.0006608909 -0.0021799959 -0.00064282655 -0.00030123882 -0.0007770026 0.0026405302 -0.0039297887
0.0018744408 0.0026597315 -0.0007419888 0.0019240568 -0.0011523094 0.00034289205 -0.0011058417 -0.002886153
0.0009083988 0.0030898498 0.0010340589 0.000575169 0.000201663 -0.0023609137 0.0008073018 0.0004237331
0.0030722695 -0.0012506713 -0.00243779 0.0029367162 0.0038271616 0.00080139877 -0.00017710758 0.0014431226
0.00062297523 -0.00191534 0.00014547634 0.00091419363 -0.000113307215 0.00015158784 -0.002445402 0.002780122
0.002407229 -0.00035149045 0.00013354384 0.00027794277 -0.0027048995 -0.0010105046 -0.0011716852 -0.00082996837
-0.0007153979 -0.0006242074 -0.0011148639 0.00071203685 0.00041961463 -0.000257929 0.00032379996 -0.00043774108
0.0004274976 0.0018183899 -0.0029841946 0.000889836 0.0025565373 0.0019198372 -0.00081863307 5.8327287e-06
0.0015023393 0.001781245 0.0034054692 0.0038057219 0.0018209828 -0.0027296676 -0.0001506913 0.0014531913
0.00013601215 0.00056281727 -0.0015714832 -0.000888295 0.003143113 -0.00089670316 0.0009417102 0.0011261395
-0.0011848996 -0.0023625814 0.0019222739 -0.00018749789 -0.004287391 0.00071759516 0.0010225466 -0.0009001411
0.000618618 -0.0041648494 -0.0009943065 -0.004649326 0.0014440368 0.0014098636 -0.00052534987 -0.0007058909
0.0014977158 0.000897207 0.0031552124 0.00093748997 0.0024530985 -0.0010980346 -0.0035482573 -0.00039254595
0.0006027633 -0.0003196663 0.00073044223 0.0017014734 -0.000900398 -0.0039242343 -0.0010702581 0.003004905
-0.00028671575 -0.0012967814 -0.0037827238 0.0022248186 0.0035554254 0.00035268662 -0.0025817677 -0.0011011232
0.0003343152 -0.002966813 -0.0010874248 0.0026149815 -0.0013161767 0.00052169006 -0.0038877162 0.0005192771
0.0005200012 0.00023428057 0.00072142936 0.0016749641 -0.0012278152 -0.0009784532 0.002347283 -0.0043696263
0.00048078116 0.0018782868 -0.00025728744 0.004715716 0.0016919534 0.0004113919 -0.0008523934 -0.0016352931
-0.0023036443 0.0024247998 0.0025772362 -0.0013470785 -0.0018243467 -0.002721064 9.806103e-07 0.0016702601
0.0005476763 0.0019134794 -0.0036259994 0.0020194752 0.0014625613 -0.0020060446 0.0026477093 0.00026076357
-0.0025995164 -0.00049499614 -0.0009842436 0.0020733555 0.0011105112 0.0008311806 0.00045839415 0.0038025035
0.0020247635 -0.0014071851 0.0007001816 0.00077155663 -0.003233768 -0.0002397349 -0.00032195126 0.0016086592
0.002562854 0.00014213444 0.0007132621 0.0006452011 0.00031534198 0.0015621359 0.0023257958 0.0005616404
0.0024224005 0.0027258752 -0.0010073236 0.0021373378 0.0017445484 0.0018109409 -0.0036621743 0.001296309
00000000: 9591 0cba 1339 9dba 9fdf 543a 4853 473b
00000010: 9840 8a3a bee6 683a 5180 d8ba 2449 96b9
00000020: f978 49bb 70ef ef3a 4aea a23a 2546 e539
00000030: 9e2f 823b 06aa 6dba 5758 b83a a0d6 1f3b
00000040: 3d17 073b 88cd 213a c5e7 083b 6454 fb3a
00000050: 9145 82bb 663a 82ba 7e95 0a3a aba0 803a
00000060: 0627 3c3a 909f 94bb b6db 8d3a d0b4 97ba
00000070: 9117 c03a be5c 613b 5df9 ceba 27ad ae39
00000080: 5aff 703a cc4a ac3a d7f7 72b9 7396 623b
00000090: e15e e239 0c49 a9ba 210e 19bb 65f5 93b9
000000a0: 76db 19ba bcb0 a53a 62fa 1839 455a 6b3b
000000b0: ee12 e7b9 e469 54bb b531 fcb9 e713 0c3b
000000c0: c554 51ba 7ae4 0dbb 83ca 80ba e256 093b
000000d0: 0680 083b d784 ceba a5e5 d1b9 cc4d df39
000000e0: 8edc 363b 242b bbba 04e6 22bb 4ff6 733a
000000f0: e96b 63b8 69ca 343a 9d94 bfba 0f10 823a
00000100: 6a23 f339 a33f 2dba 43de 0ebb 5c83 28ba
00000110: 97ef 9db9 c3af 4bba bf0c 2d3b 75c5 80bb
00000120: ccaf f53a e44e 2e3b 0782 42ba a230 fc3a
00000130: 1609 97ba 31c6 b339 e4f1 90ba 9d25 3dbb
00000140: 9d21 6e3a 147f 4a3b 4289 873a f0c6 163a
00000150: 8075 5339 8fb9 1abb 1ba1 533a 7e28 de39
00000160: 2158 493b 91ed a3ba 54c3 1fbb ec75 403b
00000170: 1ed1 7a3b f614 523a f4b5 39b9 2927 bd3a
00000180: 294f 233a 250c fbba 028b 1839 7fa6 6f3a
00000190: 599f edb8 8df3 1e39 0a43 20bb b532 363b
000001a0: 9ac2 1d3b 4048 b8b9 e707 0c39 d9b8 9139
000001b0: af44 31bb e872 84ba 3b93 99ba 3c92 59ba
000001c0: 8a89 3bba d9a1 23ba a020 92ba fca7 3a3a
000001d0: b9ff db39 a53a 87b9 b2c3 a939 9d80 e5b9
000001e0: c221 e039 0a57 ee3a 7a92 43bb e243 693a
000001f0: 948b 273b 0ca3 fb3a 8999 56ba c2b6 c336
00000200: 24ea c43a aa78 e93a 4b2e 5f3b 6b69 793b
00000210: 0bae ee3a 39e4 32bb e302 1eb9 0279 be3a
00000220: 7c9e 0e39 078a 133a 3afa cdba 78dc 68ba
00000230: b0fc 4d3b bb10 6bba 1add 763a f99a 933a
00000240: a24e 9bba 8ad5 1abb cff4 fb3a 159b 44b9
00000250: 3e7d 8cbb ff1c 3c3a f806 863a 72f7 6bba
00000260: c02a 223a 4a79 88bb 6453 82ba 6059 98bb
00000270: d645 bd3a 2ccb b83a a2b7 09ba 890b 39ba
00000280: 014f c43a 8b32 6b3a aec7 4e3b e3c1 753a
00000290: 2ac4 203b edeb 8fba e189 68bb a0ce cdb9
000002a0: c302 1e3a e298 a7b9 267b 3f3a f903 df3a
000002b0: b008 6cba dd96 80bb e747 8cba f1ed 443b
000002c0: 5652 96b9 c3f8 a9ba 93e7 77bb 43ce 113b
000002d0: 2402 693b cce8 b839 e032 29bb 9053 90ba
000002e0: 0747 af39 dd6e 42bb ec87 8eba 1c60 2b3b
000002f0: 9083 acba 07c2 083a 0ec9 7ebb 1920 083a
00000300: b150 083a 36a9 7539 4e1e 3d3a 788a db3a
00000310: a4ee a0ba 713f 80ba e0d4 193b 152f 8fbb
00000320: 5b11 fc39 d930 f63a 89e4 86b9 4b86 9a3b
00000330: 89c4 dd3a 16b0 d739 2773 5fba 5557 d6ba
00000340: bdf8 16bb 64e9 1e3b d9e6 283b 7490 b0ba
00000350: eb1e efba e153 32bb 839d 8335 a1ec da3a
00000360: ef91 0f3a b7cd fa3a 2da2 6dbb 2c59 043b
00000370: 6ab3 bf3a d877 03bb 3185 2d3b 18b7 8839
00000380: a65c 2abb a1c2 01ba bc01 81ba 22e1 073b
00000390: 938e 913a 96e3 593a 9f54 f039 6c33 793b
000003a0: e5b1 043b 4c71 b8ba 648c 373a 4a42 4a3a
000003b0: a0ed 53bb 5961 7bb9 91cb a8b9 a5d9 d23a
000003c0: 8ef5 273b ec09 1539 36fa 3a3a b622 293a
000003d0: 7c54 a539 95c0 cc3a 616c 183b 0d3b 133a
000003e0: 23c1 1e3b 99a4 323b 2c08 84ba 9412 0c3b
000003f0: 55a9 e43a 185d ed3a 1701 70bb eae8 a93a

exp_avg_sq f4 [11, 128]
0.00048763573 0.0005948178 2.3114872e-05 0.0039300993 0.00011936574 0.00016221346 7.56094e-05 9.910261e-05
0.0026743659 0.0013799932 0.000107229615 0.00014134083 0.0017425033 0.0011195696 3.616058e-05 0.0015161146
0.00017224456 0.00020939075 0.0012722758 0.00035386073 0.0022067637 0.00045980632 0.00053488766 0.000103400445
0.00029876197 0.0048015565 3.4262204e-05 0.0005708152 0.00010119708 0.0017449568 0.0015839847 0.00011470115
9.6295975e-05 0.00035474138 3.2550848e-05 0.0024845207 9.4885865e-05 0.00050636457 0.0009103559 0.0011071634
1.9953437e-05 0.00081017043 0.000115969735 0.0029559738 6.465014e-05 0.0030521015 0.0001113962 0.0027251707
0.00046766916 0.001507551 3.321262e-05 0.00030675816 0.0010103383 0.0003965552 6.270051e-05 0.00019593579
0.0029607466 0.0007958085 0.0006595196 0.000361745 0.00036477405 6.7394474e-05 0.0014815085 0.0002671836
4.960775e-05 0.00013168447 0.0018370693 0.00015302341 3.4128123e-05 0.0005355555 0.0017025004 0.0037891737
0.0006883894 0.0014949207 0.00021055875 0.0008984444 0.000491335 8.377119e-05 8.5633605e-05 0.0039433264
0.00020677035 0.0018961538 0.00011937002 2.083125e-05 0.00044017987 0.0005792339 0.0004936872 0.00035163297
0.002301167 0.0010991261 0.00080924394 0.0009903702 0.0027792526 0.00026916346 0.00029749516 0.00033780272
8.488121e-05 0.00080180686 4.201409e-05 0.00038980262 0.00049594697 0.00017991252 0.0012722169 0.001326435
0.0021893156 0.0001758683 5.0932198e-05 7.7182725e-05 0.0015963233 0.00019842839 0.00023223163 0.00013096422
0.00026153395 4.500385e-05 0.00040415247 6.129977e-05 3.40034e-05 0.00017705433 2.2095728e-05 2.6521431e-05
2.4755354e-05 0.0019156226 0.0021308856 0.00037891595 0.00083825056 0.0007119684 0.0012892603 7.1339906e-05
9.101549e-05 7.841416e-05 0.00040004187 0.00028557956 0.00010072595 0.00033775598 2.8984732e-05 4.7119265e-05
5.2782954e-05 1.8628853e-05 0.0001595119 1.1092754e-05 0.00024303928 5.6283032e-05 8.181643e-05 9.917344e-05
4.7267746e-05 0.00024274379 0.00016943447 3.099335e-05 0.00035384294 4.7854057e-05 3.808655e-05 2.3865192e-05
3.7526806e-05 0.0005777138 4.8241447e-05 0.00072400307 0.00013286082 6.839041e-05 4.0153576e-05 1.3891584e-05
0.00021175985 3.5381647e-05 0.00050585205 3.927227e-05 0.00016919312 3.3171484e-05 0.00042523915 5.542115e-05
2.0183626e-05 8.019373e-06 4.723915e-05 0.0001231768 1.0025185e-05 0.00028849556 3.2750006e-05 0.00027736797
5.5960034e-05 3.271697e-05 0.00037950138 0.00010449216 0.00027869522 1.4758596e-05 0.00028075618 0.00010024499
5.996991e-05 0.000107946966 1.4507318e-05 0.00013377971 5.5910554e-05 1.1617558e-05 0.00044188136 4.6237645e-05
2.5297513e-05 1.2406623e-05 8.5354746e-05 3.8363618e-05 1.0214077e-05 4.5292538e-05 0.00024031595 0.0006138317
2.5273066e-05 7.4392236e-05 2.5500996e-05 0.0006655086 7.841877e-05 7.257785e-05 2.9189285e-05 0.00014972483
0.00014502634 5.564605e-05 0.00015857219 2.8936502e-05 7.498162e-05 0.00021013091 5.7265042e-05 0.00014053436
4.1081843e-05 0.00014140767 0.0004295773 0.00015667139 7.883586e-05 7.048237e-05 0.00017118636 2.407681e-05
0.00031376685 8.862155e-05 3.141417e-05 0.00016996112 3.7799917e-05 1.6053367e-05 4.240262e-05 0.0004644214
6.525937e-05 0.00013382606 2.0675496e-05 2.0030233e-05 0.00033248484 3.7065645e-05 5.0863335e-05 7.316627e-05
0.00017933176 1.6431417e-05 4.324967e-05 2.570087e-05 1.0519023e-05 0.00018253081 0.00019722525 5.501682e-06
0.00015652423 0.00029380253 4.5883935e-05 0.00013013916 5.021019e-05 0.00013896183 0.0006643498 0.000112162554
00000000: 5ca9 ff39 8ced 1b3a cfe6 c137 10c8 803b
00000010: fe53 fa38 d817 2a39 7d90 9e38 4fd5 cf38
00000020: 6a44 2f3b e3e0 b43a 76e0 e038 e434 1439
00000030: b564 e43a 86be 923a 21ab 1738 5db8 c63a
00000040: 8c9c 3439 e78f 5b39 7ec2 a63a 6286 b939
00000050: 5a9f 103b 2912 f139 b437 0c3a b1d8 d838
00000060: 27a3 9c39 6056 9d3b c3b4 0f38 c2a2 153a
00000070: c539 d438 09b7 e43a b59d cf3a b68b f038
00000080: 82f2 c938 95fc b939 3587 0838 57d3 223b
00000090: 76fd c638 8dbd 043a f3a4 6e3a 3d1e 913a
000000a0: ae61 a737 9e61 543a c734 f338 03b9 413b
000000b0: c894 8738 c405 483b 619d e938 c798 323b
000000c0: 7e31 f539 0499 c53a c74d 0b38 62d4 a039
000000d0: 546d 843a bde8 cf39 147e 8338 1d74 4d39
000000e0: 1609 423b ce9d 503a 9ce3 2c3a 98a8 bd39
000000f0: 253f bf39 2256 8d38 2d2f c23a c714 8c39
00000100: ea11 5038 c814 0a39 d1c9 f03a e974 2039
00000110: cb24 0f38 8564 0c3a 6f26 df3a c953 783b
00000120: 0875 343a 37f1 c33a 6fc9 5c39 9585 6b3a
00000130: efcc 003a 51ae af38 3196 b338 0537 813b
00000140: 7ed0 5839 5d88 f83a 4b56 fa38 c5be ae37
00000150: f1c7 e639 bbd7 173a ca6a 013a 615b b839
00000160: 2dcf 163b 8d10 903a 7123 543a 4fcf 813a
00000170: 1f24 363b 821e 8d39 20f9 9b39 1d1b b139
00000180: 4102 b238 5930 523a 4938 3038 6c5e cc39
00000190: 7002 023a e6a6 3c39 84c0 a63a c6db ad3a
000001a0: 9f7a 0f3b 4a69 3839 08a0 5538 29dd a138
000001b0: b93b d13a 3711 5039 3483 7339 7153 0939
000001c0: 7e1e 8939 84c2 3c38 6de4 d339 108e 8038
000001d0: df9e 0e38 a9a7 3939 375a b937 577a de37
000001e0: b8a9 cf37 a115 fb3a 54a6 0b3b 3da9 c639
000001f0: 0bbe 5b3a 64a3 3a3a 66fc a83a 529c 9538
00000200: 92df be38 4872 a438 b6bc d139 d7b9 9539
00000210: d53c d338 d714 b139 3d24 f337 eda1 4538
00000220: 4463 5d38 2845 9c37 a642 2739 041b 3a37
00000230: 5cd8 7e39 7211 6c38 dd94 ab38 56fb cf38
00000240: 5b41 4638 0a89 7e39 38aa 3139 dbfe 0138
00000250: ff83 b939 e7b6 4838 1fbf 1f38 1c32 c837
00000260: 1a66 1d38 b871 173a dc56 4a38 06cb 3d3a
00000270: 8e50 0b39 d26c 8f38 936a 2838 e60f 6937
00000280: da0b 5e39 c166 1438 289b 043a 47b8 2438
00000290: 6f69 3139 9c21 0b38 a2f2 de39 0274 6838
000002a0: 0250 a937 f28a 0637 a722 4638 0529 0139
000002b0: d731 2837 3841 9739 0d5d 0938 b36b 9139
000002c0: a1b6 6a38 9439 0938 d0f7 c639 cd22 db38
000002d0: d71d 9239 b09b 7737 7532 9339 9f3a d238
000002e0: 3388 7b38 9661 e238 7564 7337 3847 0c39
000002f0: 8081 6a38 08e9 4237 50ac e739 4bef 4138
00000300: ff35 d437 0a26 5037 7b00 b338 9fe8 2038
00000310: 205d 2b37 7ef8 3d38 52fd 7b39 8ce9 203a
00000320: 7f01 d437 0703 9c38 f9ea d537 8775 2e3a
00000330: c274 a438 f034 9838 83db f437 74ff 1c39
00000340: 3612 1839 7e65 6938 6646 2639 aabc f237
00000350: 733f 9d38 9656 5c39 df2f 7038 685c 1339
00000360: 4b4f 2c38 d546 1439 e438 e139 2848 2439
00000370: ae54 a538 efcf 9338 7d80 3339 8ef8 c937
00000380: 1381 a439 55da b938 b5c2 0338 9737 3239
00000390: 5a8b 1e38 58aa 8637 77d9 3138 967d f339
000003a0: dcdb 8838 a953 0c39 4a70 ad37 9906 a837
000003b0: 5c51 ae39 ef76 1b38 1756 5538 d870 9938
000003c0: 010b 3c39 33d6 8937 fb66 3538 3398 d737
000003d0: dc7a 3037 be65 3f39 40ce 4e39 179b b836
000003e0: a720 2439 8209 9a39 8073 4038 f775 0839
000003f0: c898 5238 48b6 1139 c327 2e3a d038 eb38
